dqn/exercise/checkpoint.pth (torch, 49062 bytes, 6 tensors)

input.weight f4 [120, 8]
00000000: 1f13 b1be f955 91bf 3471 72bf cfee c9bf
00000010: 09e2 a0be 3bac 3fbf 0513 15bd 91bd d13e
00000020: 514e 02bd a00c 27bd 8687 8a3d dc79 f53d
00000030: 63d3 0ebf fdda 71bf 3ff8 b0bc 972a 3b3e
00000040: 91e0 163f ae32 92be e8d3 87bf 8f7e 5bbf
00000050: 9ef2 353f 3221 003e 76fb d33e f3d0 193f
00000060: 5c59 3c3f 309e 75bf 2814 3a3f 28fb b83d
00000070: e301 3ebf d1a3 7bbe c62d 813d e17c 8f3e
00000080: 2398 903e 83aa b5bf 373e 023e 63ad 14bf
00000090: 289e b43e 6134 643f 6983 2b3e 2020 01be
000000a0: 69a5 7fbb 8e11 eebe 1710 fa3d 8364 0dbf
000000b0: 0cba 7ebe 9c00 5cbe 4922 e83e 116c 323e
000000c0: 999f cf3d ffa6 38bf 46ab b73e d53b 0b3f
000000d0: 67e6 98bd 5ed3 c2be 9ef2 f03e 5e05 9f3d
000000e0: 0a5c c33e 0432 48bf 912d 88be 9ea7 e7be
000000f0: d482 5a3e 65ec 413e ca23 5b3c f147 353e
00000100: c6af 233f fc24 0dbc b577 3b3e b36a 8a3e
00000110: de70 6b3e 19f9 2d3f 51ce fbbc d69e 583d
00000120: 7e79 923d ee18 533f b872 72bd 9d75 b43e
00000130: 023b 073e 4c2d 09bf 01f9 883e 20ad debe
00000140: 5d71 48be c381 143f a621 053f b3c1 1abf
00000150: d5d3 2abe e292 b43e 45a7 9e3d 042d c93c
00000160: 7f00 e4bc 620c c3bd e6d3 163f 7672 f6be
00000170: 582b 093f cf96 ad3b 2904 afbd 8100 b9be
00000180: 863f 1c3f 2d3d d83e 1a26 93bf c614 583e
00000190: fa39 823f 86e5 9d3e 57cf a3be 01eb c73d
000001a0: 9fa6 31bd bc3f 8d3b c399 bcbf 606d 5ebf
000001b0: 597d fd3c 6d14 d33d df04 4dbe 1a4c dc3e
000001c0: 1d30 9c3c e0c3 9abd c3bb bf3f 7f9f c1bf
000001d0: 89a5 19bc ef40 c4be 7b14 ee3e ec59 203e
000001e0: 2d23 933e 203a 303e cd6c bfbe 2179 913e
000001f0: 0047 08bc ea4c 903e 013f ffbd ae73 a43d
00000200: 4e4e 9cbd 91f5 24bf d856 39be 7bc9 c9bc
00000210: 16ea 2dbd a7f3 2fbe ffa7 e73e 5c6c aebd
00000220: fdd5 86bd fadf bbbd 845e 7a3e 99dc 8c3e
00000230: ad16 153f 5d9a b23e 1aa9 293e 1740 d13d
00000240: b603 8fbe c8e5 a73d 4f94 9b3e 3a5c e83c
00000250: a464 2bc0 cbff 92bd df9c c7bd 6092 a4be
00000260: a91b af3d 9e08 ac3e 6786 023f d322 81bf
00000270: a06a 2f3e 2759 29be 894f b63d 77f2 9c3c
00000280: a312 52bd 7ef5 97bf 4802 5cbf dd33 db3f
00000290: fbaa 7b3e 5f28 6b3e 35b0 4abd f654 823e
000002a0: b947 24bf 68e3 8ebe d4c5 193f 3c7b 283e
000002b0: bace 253f 96e3 91bd 4bf8 8fbd d68a b83e
000002c0: b69b c9be 4183 22bf 6f48 d03d e930 53be
000002d0: 3d64 c7be adb3 633e 4059 de3e c244 a83d
000002e0: 383e 3d3e 4787 2ebf e7d4 47be 1df5 afbf
000002f0: 19fc 25bd 7012 8ebe da3e 813e 2513 033e
00000300: ae48 55be fe01 84bf 502f 3fbf 9c43 75bf
00000310: acd9 153e 452d 6e3d 1207 54be 3ffa 793d
00000320: 0eb7 0fbe 405a 0cbe 6a48 6f3e 6d7c e0bd
00000330: 2e6d e13e f644 4abe 75ce 4ebd f59a 0f3f
00000340: 943d f2bd b9c0 3b3e 3690 08be d56e 08be
00000350: 9294 2c3e cd61 8abf 2d88 7b3d 528c a13e
00000360: 8b3f 0ebe 078f 20c0 ef86 ea3e c237 9abf
00000370: 4887 783e 98a2 553e 71bd 8f3e b428 993d
00000380: 9b9a 22bf d79e b83e f335 88be be83 433f
00000390: 0bdf 64bd 8d79 4e3c 968a c13e 347a 273f
000003a0: 6a7c a33e 5fc3 1c3f 8911 093f ebb5 18bf
000003b0: 711d 66bd cfe4 c0be 04a4 a83c ecd0 7e3e
000003c0: 3bf4 fb3d 1857 5a3f e8bd f3be bb55 94be
000003d0: d153 ef3d 9a85 84bf ea54 c33d 4579 aebd
000003e0: eeb7 98bb 891b 04bc c554 893d 4da1 e1bd
000003f0: f6b8 4e3f c91b 40bd a447 c3bd 4409 023e
-0.345849 -1.1354362 -0.94703984 -1.5776004 -0.3142245 -0.7487218 -0.03639509 0.4096494
-0.03181297 -0.040783525 0.0676413 0.119861335 -0.557913 -0.94474775 -0.021602748 0.18277965
0.5893641 -0.2855429 -1.0611544 -0.8573999 0.7107333 0.12512663 0.41402787 0.60084456
0.7357385 -0.959445 0.72687006 0.09032279 -0.7422163 -0.2457421 0.06307559 0.28024963
0.2824107 -1.4192661 0.12719046 -0.5807707 0.35276914 0.89142424 0.16749348 -0.12609911
-0.0039008504 -0.46497768 0.122101 -0.55231494 -0.24875659 -0.21484607 0.45338657 0.17424037
0.10137863 -0.72129816 0.3587286 0.5438817 -0.07465821 -0.38051885 0.47060102 0.077646956
0.38156158 -0.7820132 -0.26597264 -0.4524507 0.2133897 0.18937834 0.013375232 0.17703225
0.63940084 -0.008614775 0.18307383 0.2703453 0.22992274 0.6795822 -0.030738028 0.052885853
0.07152079 0.82459915 -0.059191436 0.35245982 0.13206103 -0.5358474 0.26752475 -0.4349146
-0.19574495 0.580105 0.5200447 -0.6045181 -0.1668237 0.35268313 0.07746748 0.024557598
-0.027832268 -0.09523846 0.5891708 -0.48134202 0.5358176 0.005297519 -0.08545715 -0.36133197
0.6103443 0.42234173 -1.1496003 0.21101674 1.0173943 0.30839175 -0.31994125 0.0976162
-0.043371793 0.0043105762 -1.4734424 -0.86885643 0.03094356 0.1030663 -0.2002139 0.4302681
0.019065911 -0.075568914 1.4979175 -1.5126799 -0.009377846 -0.3833079 0.465 0.15659302
0.28737774 0.17209673 -0.37387696 0.28412727 -0.008317709 0.2818368 -0.12463189 0.08029877
-0.07632123 -0.64437205 -0.18099535 -0.024632206 -0.04245957 -0.1718279 0.45245358 -0.08516762
-0.06583784 -0.091735795 0.24450117 0.27512053 0.58237725 0.34883395 0.16568413 0.10217302
-0.2793252 0.08198124 0.30386588 0.02836429 -2.6780176 -0.07177695 -0.09746718 -0.32142925
0.08550198 0.33600324 0.5098633 -1.0088753 0.17130518 -0.16537915 0.08901889 0.019158585
-0.051287305 -1.1871793 -0.8594098 1.7125202 0.24576943 0.22964619 -0.04948445 0.25455445
-0.6417194 -0.27907872 0.60067487 0.1645326 0.64768565 -0.07123487 -0.0702978 0.36043423
-0.3937661 -0.6348153 0.101700656 -0.20624126 -0.38943663 0.2223651 0.43427467 0.082162395
0.18480766 -0.68175167 -0.1951481 -1.3746678 -0.040523622 -0.27748442 0.25243264 0.12800272
-0.20828506 -1.0313108 -0.7468157 -0.9580629 0.14633816 0.05814864 -0.20705822 0.06102967
-0.14034674 -0.13706303 0.23367468 -0.10961232 0.4402861 -0.19752869 -0.05048986 0.5609582
-0.11828151 0.18335237 -0.13336262 -0.13323529 0.1685355 -1.0811096 0.061409164 0.31552368
-0.13891427 -2.5087297 0.4580607 -1.2048266 0.24270356 0.20862806 0.2807422 0.07478467
-0.6351716 0.36058685 -0.2660366 0.763729 -0.055876773 0.012602222 0.37801045 0.6542084
0.31930858 0.6123561 0.5354238 -0.59652585 -0.05618042 -0.37674567 0.020586021 0.24884385
0.12302443 0.85289145 -0.47605824 -0.28971657 0.116859086 -1.0353272 0.095376804 -0.08519224
-0.004660598 -0.0080632055 0.06705622 -0.11017094 0.8075098 -0.046901498 -0.09535149 0.12698847

input.bias f4 [120]
00000000: 00cf 9dbe 0589 633e a6c4 143e f48e 8cbe
00000010: cf14 f6be a3da 233e 1f53 163f fbd0 89bd
00000020: c102 713e 2b44 2c3f 8251 f43e d56b e03e
00000030: bdf2 ab3e 68be 68bd bf6c d93c a522 e33e
00000040: cab5 403e e6b5 c93e 5e50 cfbd eb58 253f
00000050: 48ac 4ebe 137c afbe 44fa 16be 56bc 90bc
00000060: 2722 66be ea95 c3bd d4cb c4be 1195 0b3e
00000070: fd9f d93c 3fe6 0b3f 751c a63e f0b7 ea3e
00000080: b199 6fbd 4e2b 15bf ce7c b83e e65d 37be
00000090: 3d1f 333e ca56 71bc 0173 98bd 9a92 3c3e
000000a0: fc49 103e 257a 13be 6a2f e33e 5a70 31be
000000b0: b9c2 2b3e bdbc 5f3e 10b7 1dbf c0e1 50be
000000c0: dfd4 b1bd 5429 833e b34e bd3d a6b6 35be
000000d0: d1df 983e c0a4 89bd b69f 91bd dfd9 9a3e
000000e0: 8764 8b3e 6d80 773d 3ba2 67be f05f 513e
000000f0: b6ed a73b e465 b0be 3226 6d3e 903b 8a3e
00000100: 9a2e 6f3c 296c 04be 4f33 0e3e b480 4c3e
00000110: 1064 82be 5322 043e c0b2 bf3e 74f9 c43b
00000120: a691 be3b 6b83 f3be 3b2a 19bd a639 d93e
00000130: c40e b0be 2d7d 2ebd 83b6 bdbd 9b85 303e
00000140: b52d 51be 3bfe 003f fe2c 203e 6223 20be
00000150: 7e29 af3e a83e 7a3e c5dd bd3e 2f65 553b
00000160: c2d0 58be 922a 393e bb39 12bb 0fc4 673e
00000170: c272 9d3e f8ae 2d3f 6099 8cbe 4fb0 f43d
00000180: 32ae 813e 9a92 8d3e f3be b4ba 6018 54bd
00000190: fe80 00bf c07b 303f 5bf9 df3e 3931 093e
000001a0: ae81 273e a24a 773c 89cf 633e a8aa 02bf
000001b0: 5bdf 0bbd 7da6 013f 1e3b c03d 602a 88be
000001c0: 25fc 353e 8990 04be adfe f63e f098 283e
000001d0: 70cd bdbe 93ed cbbd aa11 333f 2b0e 983e
-0.3082199 0.22220238 0.1452814 -0.27452815 -0.4806275 0.16001372 0.5872058 -0.06729313
0.23536207 0.67291516 0.47718436 0.4383227 0.33583632 -0.05682221 0.026541112 0.4436237
0.18819347 0.3939659 -0.10122751 0.64588803 -0.20182908 -0.3427435 -0.14743906 -0.01766793
-0.22473966 -0.09550078 -0.3843676 0.13631083 0.026565546 0.546482 0.32443586 0.45843458
-0.05849618 -0.582692 0.36032718 -0.17906913 0.17492385 -0.014730165 -0.0744381 0.18415299
0.14090723 -0.14402063 0.44372112 -0.17328015 0.167735 0.21849342 -0.61607456 -0.20398617
-0.0868318 0.25617468 0.09243526 -0.17745456 0.29858258 -0.06720877 -0.071105406 0.30244347
0.27225134 0.06042521 -0.2262048 0.20446754 0.005124773 -0.34452736 0.23159102 0.26998568
0.014598513 -0.12931885 0.1388676 0.19970971 -0.25466967 0.12903719 0.37441063 0.0060111824
0.0058157025 -0.475612 -0.03739379 0.42426795 -0.34386265 -0.042599846 -0.09263327 0.17238466
-0.20427592 0.50387925 0.15642163 -0.15638497 0.34211344 0.24437964 0.3708326 0.003256153
-0.21173385 0.18082646 -0.0022312242 0.22633384 0.30751616 0.67845106 -0.27460766 0.11947691
0.25328213 0.2765091 -0.0013789817 -0.05178106 -0.50196826 0.6893883 0.4374493 0.13397683
0.16358063 0.015093477 0.22247137 -0.5104165 -0.034148555 0.50644666 0.09386276 -0.2659483
0.17771967 -0.12945761 0.48241177 0.16464591 -0.370708 -0.09957423 0.6994883 0.2969831

hidden_layers.0.weight f4 [84, 120]
00000000: 6a99 0f3d 3d0a 89bd 415c 083d fb20 27bc
00000010: 6bdf 153d 4809 843d 3988 223d bb73 febb
00000020: df42 b8bb 9a82 6abd a63e 07bd 72fb 723d
00000030: f9ef 15bd d436 683d 9d44 14bd d42a aebc
00000040: 35a5 fe3a 2390 abbd a7f1 6eba 43c1 16bc
00000050: 115d 06bc 3e7e 95bc 4f64 933d 9af8 893d
00000060: e96b 7dbd 2db1 2d3d 1fa5 92bd dc28 9fbd
00000070: a498 e43c 96d8 af3a ab6e 2ebd da51 b4bd
00000080: 3bc1 10bd d6c5 f93c f60b adbd 0b9f b5bd
00000090: b2c1 3d3c 11af 86bd d7c9 a3bd 2810 10bd
000000a0: f1cc 70bc 4be3 a9bd deab 79bd 0022 c43b
000000b0: 504b b0bd 4c38 52bc 9a6f 71bd d79a 81bd
000000c0: 80f5 123d e8e5 8fbd 7fae 8dbd 2d3c 553d
000000d0: 5fd1 8b3c 6143 aa3d d3e3 c7bc e79a 34bd
000000e0: ba6a 0abc 0c25 f239 b694 8e3d 1c39 babd
000000f0: 7ffb d4bb 9866 253d 2ee8 4dbd faff 3dbd
00000100: 18b3 343d 7123 b3bd 8033 b13c 21bd 90bd
00000110: 7cdb 393d dbda 9fbd 01e2 653d 86fa b0bd
00000120: 2326 9dbd 5f54 b03a b351 933d b71b a0bd
00000130: 7cc9 26bd 3e33 a43d f7d0 7abc ece7 1a3d
00000140: efd9 b3bd 232d ebbc 6fe2 3dbd 869d 9d3d
00000150: 3930 1b3d cf6a 88bd 8723 713c 6a85 89ba
00000160: 0fa1 19bd 4988 55bd 2628 f8bc 185d 933d
00000170: 1305 86bd 452d 85bd ccb7 e6bc 7726 d03a
00000180: 0a91 cb3c ab86 333b 3705 b4bc b8b8 62bd
00000190: 1b2f 86bc fd84 16bd 0f0c 973d 16fc b5bd
000001a0: ca80 6ebd 041b 98bd 7dab 88bc 97b0 913d
000001b0: cedf a33d 69c1 a2bd 7a9a 81bb 4179 5b3d
000001c0: c6d1 243d e822 993d 46f2 25bb 8d3a 7bbd
000001d0: a95a 773d 4838 00bd 3e9b 413d 844a b8bc
000001e0: fee8 373f ddd2 5dbf 1942 f13e ca62 acbe
000001f0: 6bca dc3e 585f 15be 09bd 2abd ae9a f53d
00000200: 50f8 85be 9484 163f 8eb3 ec3e 3671 dcbe
00000210: 770a 7c3e c0a4 df3e 60ab 553f 4e10 ab3e
00000220: 35ed 01be 66a7 c5bc 3dac fe3f 8b12 d93e
00000230: 489e d2be 375c 54be 43d4 5fbe fc64 9a3e
00000240: 0026 38bf 5fa0 b03e e77d 2ac0 9162 d83e
00000250: a265 113e b71b cb3e eac9 113f f98b 513e
00000260: 25d5 a23d 0d65 9dbf 583c 883e 8ac6 8b3e
00000270: 4518 953e 0ada 8bbe e9cd 0540 eecc bcbe
00000280: 9eca 1cbd dcb1 7fbe 7705 433e 33fe 953f
00000290: 81a3 b6be 0381 58bf 39ec adbf f1fa 40bf
000002a0: 7266 893e 8edc 373e 5a21 88be 1457 973f
000002b0: 8370 8abf f97a 8ebe 9b61 1fbe 889e a03e
000002c0: fff8 c83d 1e45 0a3f 5703 683d 7eda 403f
000002d0: aadb 22be 0f8c b5bf 3699 d03e 9f58 5b3e
000002e0: 55ac 07be 890d 57be b79f 86bd eeb9 91bb
000002f0: 70f9 5abf 806b a7bd 7215 9d3d 646c a7bf
00000300: 9eea a93f 0e6a c9bf cc5e 0c3f 1d99 87be
00000310: f9c9 03be 8caf 7fbf bf89 033c 3d02 81bf
00000320: 9333 b23e a78f 393e aab6 1e3f ffbf 8cbe
00000330: 3c7f e9be 7e53 8dbe 2c7e 943e f031 84be
00000340: 9d18 b83e 6192 8f3d 4dc3 1a3d 59ec 763f
00000350: dcba 65bd 905f f83e 5521 f3be d137 423f
00000360: 3dc1 533e 48b8 033f 59cb 103e 7593 a4bd
00000370: c32b 8abf 239f a53e 8117 db3e 7cd9 8c3e
00000380: 0140 313f 8031 27bd a140 15bf e4dd 1ebf
00000390: 0a9b aabd 63e2 e93d e432 86bf 7fcb bdbe
000003a0: 4eaa 8cbd bd2c 42be 61f4 2ebe 6ec7 973e
000003b0: 4b3a 74bd 1476 8bbe 3da3 d03e 3789 233f
000003c0: 9e82 d3be 37ef 053e 13b1 b33c 5be2 b93e
000003d0: 55ed 43bf 5bb3 2b3e 0c35 02bf 0365 eabb
000003e0: 5786 a83e 1886 47bf 027b 823d 8067 183e
000003f0: 3282 643e 0979 02be f617 523e db49 8fbe
0.035058416 -0.06691406 0.033291105 -0.010200734 0.03659002 0.06447083 0.039680693 -0.007765261
-0.005623206 -0.057253458 -0.03301873 0.05932183 -0.03660581 0.056692913 -0.036198247 -0.021260656
0.0019427898 -0.08377101 -0.00091149885 -0.009201351 -0.0082009 -0.018248674 0.07196867 0.0673687
-0.06187049 0.042405296 -0.071604006 -0.07771465 0.027904816 0.0013415988 -0.04258601 -0.088046744
-0.03534053 0.030489843 -0.08449547 -0.08868226 0.011581825 -0.0657636 -0.07997482 -0.035171658
-0.014697299 -0.08295306 -0.06095492 0.0059854984 -0.08608115 -0.012830805 -0.058944322 -0.063283615
0.03587866 -0.07026273 -0.06918048 0.05205934 0.01706761 0.08313633 -0.024400627 -0.04409304
-0.008448297 0.0004618544 0.06961958 -0.09092924 -0.0064997072 0.040381044 -0.050270252 -0.046386696
0.04411611 -0.08746994 0.021631002 -0.070673235 0.045375332 -0.07805415 0.056123737 -0.086415336
-0.076732896 0.0013452879 0.07193317 -0.07817786 -0.040719494 0.08017586 -0.01530861 0.037818834
-0.08781802 -0.028708046 -0.046358522 0.07696061 0.037887786 -0.06660997 0.014717943 -0.0010492031
-0.037507113 -0.052131925 -0.030292582 0.071954906 -0.065439366 -0.06502775 -0.028163813 0.0015880604
0.024849433 0.00273935 -0.021975143 -0.055351943 -0.016379884 -0.03674792 0.07375347 -0.08885972
-0.05822829 -0.07427028 -0.016683334 0.0711376 0.08001672 -0.07947046 -0.0039551826 0.053582434
0.040239118 0.07477361 -0.0025321408 -0.061335135 0.060389195 -0.031303674 0.04726719 -0.02249647
0.7183989 -0.86649877 0.4712074 -0.3366912 0.43123183 -0.14587152 -0.041684184 0.119923934
-0.2616601 0.5879605 0.4623074 -0.43055123 0.24613367 0.43680382 0.8346462 0.33410877
-0.12688144 -0.024127673 1.9896313 0.4239696 -0.41136384 -0.20738302 -0.21858315 0.3015517
-0.71932983 0.34497353 -2.6639345 0.422627 0.14198926 0.39669582 0.5694872 0.20463552
0.0795081 -1.2296463 0.2660854 0.2729991 0.2912008 -0.27314788 2.0906928 -0.368751
-0.03827917 -0.24970192 0.19045053 1.17182 -0.3567162 -0.84571856 -1.3587714 -0.75382906
0.26835972 0.17955229 -0.26587945 1.1823449 -1.0815586 -0.27828196 -0.15564577 0.3137095
0.09813117 0.54011714 0.05664381 0.7533339 -0.15904108 -1.4183367 0.4074189 0.21420525
-0.13249333 -0.21001257 -0.06573432 -0.0044472134 -0.8553686 -0.08174801 0.07670106 -1.3079953
1.3274724 -1.573549 0.5483215 -0.26484004 -0.12870015 -0.9987724 0.008028447 -1.0078808
0.34804973 0.18121205 0.61997473 -0.2749023 -0.45604885 -0.27602762 0.29002512 -0.2581935
0.35956278 0.070103414 0.03778391 0.9645439 -0.056086406 0.48510408 -0.47486368 0.7586642
0.20679183 0.51453066 0.14140071 -0.08035938 -1.0794605 0.32347974 0.4279137 0.27509677
0.6923829 -0.04081869 -0.5830174 -0.6205733 -0.083303526 0.11420133 -1.048428 -0.37069318
-0.068684205 -0.18962379 -0.1708541 0.2964434 -0.059625905 -0.27238524 0.4074954 0.6388125
-0.4131059 0.13079534 0.021935022 0.36305508 -0.76534015 0.16767637 -0.50862193 -0.007153155
0.32914993 -0.77938986 0.06371118 0.14883232 0.2231529 -0.12741484 0.20516953 -0.27986035

hidden_layers.0.bias f4 [84]
00000000: f738 773d 7dd8 f33e 24bc 123e d091 213c
00000010: d1fd 213e f93a 2f3e 563a b8bd 62c4 8b3e
00000020: 9304 ac3d c785 f53d 9d0e af3e 8db3 f83d
00000030: 8d8f 8e3d c4e3 493e c8e7 9c3d 7861 443e
00000040: 649b 9c3e 4f48 07be 5ef6 203e fa5b 97bc
00000050: 602c 45bd fc0f 473d fd90 1f3e e0ac 0c3e
00000060: e8b6 08bd ab4d 6abd cc01 bd3e 9cb2 8e3d
00000070: 94c7 00bc 348d c63d 1842 a63e 53eb 553c
00000080: f222 f8bb aa8a b5bd a09b 213e fe7e c23d
00000090: b57b 56bd 5346 07be 6035 3b3b b602 2ebc
000000a0: 28f3 293e 26dd 2a3e 54df 283d 2b27 60bd
000000b0: 5cfe d03d 554d 353c 5bfe 503e 41b2 f43e
000000c0: 2320 383e 67cc 0d3d a0f8 683e c628 d13d
000000d0: eba3 c23e e131 b7bd c5f5 b13d 73e5 173e
000000e0: 0618 293e 23a9 913b bb58 4c3e a0bb aa3c
000000f0: 89cf ecbb 11ee 503d 9a43 033f 0cd3 a9bc
00000100: ebb3 0a3e ca7d df3d 1333 03bd ea5a 733d
00000110: 2383 5b3d 14e3 8e3d d3e1 483e 01b8 2bbe
00000120: 883d 9b3e a7fe a93c 2e72 31be 8ac9 813e
00000130: 071e b73e e2ef 93bd 8731 9e3d 13c6 d2bb
00000140: afe8 a83c d799 36bd d4cd 2a3e 70d6 dc3d
0.06035706 0.47626105 0.14329582 0.009861425 0.1581948 0.1711234 -0.08995502 0.27298266
0.0839931 0.11988407 0.34190837 0.121436216 0.06960974 0.19715792 0.07661396 0.19177806
0.30587304 -0.13211177 0.15718982 -0.018476475 -0.048138022 0.04859923 0.15582652 0.13737822
-0.033377558 -0.057202976 0.36915433 0.06967661 -0.007860083 0.09694901 0.324723 0.013056594
-0.007572525 -0.08864339 0.15782022 0.09496878 -0.05236407 -0.1321042 0.002856575 -0.0106207635
0.16596663 0.16685924 0.041228607 -0.054724853 0.10204765 0.011065801 0.20409529 0.47792247
0.17981009 0.03461876 0.22751093 0.10212855 0.38015684 -0.089450605 0.08689455 0.14833622
0.1651307 0.0044452115 0.19955723 0.02084142 -0.0072268886 0.051008288 0.51275027 -0.020730518
0.13545196 0.10912664 -0.03203113 0.059412874 0.05359186 0.069769055 0.19617395 -0.1676941
0.30320382 0.02075131 -0.17328712 0.25349075 0.35765097 -0.072234884 0.0772429 -0.0064323037
0.020618765 -0.044580307 0.1668008 0.10783088

output.weight f4 [4, 84]
00000000: 3cf0 b8bd 921a 993f 5902 ddbe c462 9ebe
00000010: 3216 02bf 1a03 2cbf 4715 87be b87c 9ebe
00000020: 2f86 d2be 086d 9cbe c7a5 0c40 a98c 67be
00000030: 63a6 033e 9c58 2a3f 977c 373e e56f bfbe
00000040: f68c b73f 78bf 7bbf e890 8dbf 3a45 983d
00000050: c143 8c3b 4d86 dbbe 7bb8 b4be 2c85 bfbe
00000060: ad98 e43c b34c 7bbf 1ff9 ef3f b065 9abe
00000070: 5553 9fbe a923 c4be ff88 5e3f 4020 a3be
00000080: f078 843d 5534 28be a89e 99bf 7564 c3be
00000090: 4ae3 6b3f de72 073f 8771 fabe 0a56 8bbe
000000a0: 1113 aebf e337 0abf a69a 3bbc 8f24 a63d
000000b0: 4526 a7be dea2 543e dd3d d2be ebed 883f
000000c0: 1649 c6be 647f ebbe 2e94 903e 62c0 62bf
000000d0: 77ad adbe 3d5a 69be 997a 15bf 217a 393e
000000e0: d5c9 b1be 5886 0abe 960b 163f 1dfb b3be
000000f0: 051e 98be 672d 0ebd 40c4 9c3f d32d 7cbe
00000100: cc34 9cbe 04c0 83bf b8f9 81be 698c 203e
00000110: 94e8 abbe ed46 56bf 5a8d 68bf 106e 213f
00000120: e2c0 903f 4702 b8be 0cd5 153f a6eb bebe
00000130: 2e23 04be f5ec 1a3c dc56 a0be 1ae8 2b3f
00000140: e086 ae3d 9164 39be 4afe babe c437 a6be
00000150: ff61 2d3d 0763 753f 60d6 76be 227b 2ebe
00000160: 3f0f 16bf 2ea8 eebe 5f41 c1be dce3 56bf
00000170: 4ee5 c6be dc58 b5be baac e73f 96d8 8dbe
00000180: 358f 4a3e f6b9 143f f3cb 013f d031 f2be
00000190: 23ba 713f 39aa 23be 0041 48bf 0b8d 45bd
000001a0: 3432 b1bd 2208 d9be 9304 54bd f9ac 8abe
000001b0: 5521 24bd b71b 18bf 4d8c 2c40 e173 8cbe
000001c0: 6454 90be fdd3 88be 000d 023f 3682 afbe
000001d0: 4043 8a3d dd67 55be 06ac 5ebf 333c d4be
000001e0: e9c2 6b3f 6827 c93e 32dc 96be 2709 09be
000001f0: 565c 483e 219d 81be 713a cd3c ee31 d53d
00000200: 9d3f afbe 4eec d73d 748f c5be 4269 9b3f
00000210: 063b 95be 5387 4fbe c85f 003f 5750 70bf
00000220: 1d10 3cbf 3f5e 93be f050 02bf dc5b c43e
00000230: 16c4 a2be 65dd b2be 87e6 423f 320c 9fbe
00000240: 2924 8dbe 6f6c 453d 31d7 963f 4e5e 71be
00000250: ed4d 90be 7b9e 41bf c25d 61be 6789 d3bd
00000260: c053 9abe aa50 2dbf bfc2 45bf 3447 95be
00000270: 176e 533f 6663 0bbe 360d 5ebe c698 8cbe
00000280: 23d2 b9be f372 45ba 14f1 96be 2a79 323f
00000290: de24 803d fe4a 94be 9992 ddbe 4f28 d4be
000002a0: 9cd1 3cbc ccb6 a13f c021 8bbe 3ed8 abbe
000002b0: 9cc7 e6be 8955 0ebf 3b95 b8be 43c5 89bf
000002c0: 0201 d5be b9d0 ddbe fa84 673f fe58 9abe
000002d0: 3051 a0bf baa0 0d3f b57b 603f c9ec 08bf
000002e0: 37e0 ba3f 1513 81be 16ca 23bf db57 90bd
000002f0: 6fba febc 2676 0abf 8df4 1a3c 2b36 07bf
00000300: 255d 4e3d b86b 96be 285d a33f 0e4f aabe
00000310: fc3b a4be f1b7 53be 0d8f 953f 62b0 a2be
00000320: f7fe 3e3d 3e16 913f e227 e2be 2596 9ebe
00000330: 5f08 8b3f 0a87 dc3e f875 9cbe 878e 14bf
00000340: d032 80bf ef3b a8be ef95 d4bd cbe1 be3c
00000350: cc6c d0be d1f5 d53e c115 9ebe ad1b 993f
00000360: b008 8cbf cb7f 73bd 1e41 453f 67db 57bf
00000370: d746 03bf a181 dcbe 34f6 c33d fef4 b73e
00000380: e57c cdbe b26a 03bf 25a9 283e 66a9 77be
00000390: 3e9e 8cbe be77 463d 045d 653f a63c f9be
000003a0: 476e 8abe 12da 88bf 4842 febe e10f df3e
000003b0: 7262 92be 4b77 05bf b0d6 8bbf f1b0 7d3e
000003c0: e22e 883f dc9f 42be 1784 6c3f d196 2bbf
000003d0: 1aec 20bf 0a42 c93d da58 35be f96e 9f3e
000003e0: 4dc5 323d 9491 b9be 2ee1 99be fd98 d2be
000003f0: 5866 89bd 4a93 8e3f e396 2bbe 674e d6be
-0.09030196 1.1961234 -0.43165854 -0.30934727 -0.5081512 -0.6719223 -0.2638342 -0.30954528
-0.41118 -0.30551934 2.1976182 -0.22612251 0.1285644 0.6654146 0.17918621 -0.37390056
1.4339893 -0.98339033 -1.1059847 0.07435079 0.004280538 -0.428759 -0.35296997 -0.3740629
0.027904833 -0.9816391 1.8747901 -0.30155706 -0.31118265 -0.38308457 0.8692779 -0.31860542
0.064683795 -0.16426213 -1.2001543 -0.3816258 0.9214369 0.5290965 -0.4891474 -0.2721408
-1.3599569 -0.53991526 -0.011450445 0.08112442 -0.32646385 0.20765254 -0.41062823 1.0697607
-0.38727635 -0.4599563 0.28238052 -0.885748 -0.33921406 -0.2278833 -0.58390194 0.18112995
-0.34724298 -0.1352781 0.5861143 -0.35152522 -0.29710403 -0.034711268 1.2247391 -0.24626856
-0.3050903 -1.0292974 -0.25385833 0.15678562 -0.3357588 -0.83701974 -0.90840685 0.6305857
1.1308863 -0.35939237 0.5852821 -0.3728916 -0.12904045 0.009455909 -0.31316268 0.67151034
0.08521819 -0.1810477 -0.36522132 -0.3246442 0.042329784 0.9585423 -0.24105215 -0.17039159
-0.58617014 -0.46612686 -0.37745187 -0.83941436 -0.3884682 -0.35419357 1.8099587 -0.27704304
0.19781192 0.58096254 0.50701827 -0.4730363 0.9442465 -0.15982904 -0.7822418 -0.048230212
-0.086521536 -0.42389017 -0.051762175 -0.27085093 -0.04007085 -0.5941729 2.6960633 -0.2743216
-0.28189385 -0.26724234 0.50801086 -0.3427903 0.06751108 -0.20840402 -0.86981237 -0.41452178
0.92094284 0.39287877 -0.2946487 -0.13382398 0.19566473 -0.25315192 0.025052281 0.10409914
-0.3422822 0.105431184 -0.3858601 1.2141497 -0.29146594 -0.20266466 0.5014615 -0.9387259
-0.73462087 -0.28782842 -0.5090475 0.38351333 -0.31790227 -0.34934536 0.76133007 -0.31063992
-0.2756665 0.048199113 1.1784421 -0.2357113 -0.28184453 -0.75632447 -0.22008422 -0.10328942
-0.3014202 -0.6770121 -0.77250284 -0.29155886 0.8258986 -0.13612136 -0.21684727 -0.27460307
-0.36293134 -0.00075320824 -0.29480803 0.6971613 0.06257032 -0.28963464 -0.43275908 -0.41437003
-0.011524584 1.263391 -0.27174187 -0.33563417 -0.45074165 -0.55599266 -0.36051354 -1.0763324
-0.4160233 -0.43323305 0.9043728 -0.3014602 -1.2524776 0.55323374 0.8768876 -0.53486305
1.4599675 -0.2520987 -0.63980234 -0.07048007 -0.031094758 -0.5408653 0.0094577195 -0.5281703
0.0503818 -0.29379058 1.2762804 -0.3326344 -0.32077014 -0.20675637 1.1684281 -0.31775194
0.046629872 1.1334913 -0.44171053 -0.30973926 1.086193 0.43071777 -0.30558753 -0.5802998
-1.0015507 -0.32858226 -0.1038016 0.023301026 -0.40708005 0.41789106 -0.30875972 1.1961571
-1.0940151 -0.059448045 0.77052486 -0.84319156 -0.5127997 -0.4306765 0.09568444 0.35929102
-0.4013435 -0.5133468 0.16470774 -0.24185714 -0.2746448 0.04845404 0.89595056 -0.48679084
-0.2703726 -1.069155 -0.49659944 0.43566802 -0.28590733 -0.5213515 -1.0924892 0.24774529
1.0639307 -0.19006294 0.92389053 -0.67027 -0.6286026 0.09827049 -0.17709675 0.31139353
0.043645192 -0.3624388 -0.3005461 -0.41132346 -0.06708974 1.1138699 -0.16756777 -0.4185669

output.bias f4 [4]
00000000: f4ae 77be 6752 64bd d284 9e3d dcaa 83bd
-0.24187833 -0.055742647 0.07740177 -0.06429073
