dqn/exercise/checkpoint.pth (torch, 178212 bytes, 8 tensors)

input.weight f4 [256, 8]
000000 09 f3 95 be ba 82 46 be 16 db c2 be d0 1e 8b be
       -0.29286984 -0.19385806 -0.38057774 -0.27171946
000010 da c3 7b be 5a d9 55 3e 14 44 d3 3d 3e 48 14 3e
       -0.2458643 0.20883694 0.10315719 0.14480683
000020 73 30 7c 3c 33 1a 36 3c 28 39 f8 3d fd cd 8c bd
       0.015392411 0.011114645 0.12120277 -0.06875227
000030 81 70 6d be f5 b4 4d bf 2d d2 c6 be d1 ac a4 3e
       -0.23187448 -0.80354244 -0.38832226 0.32163098
000040 61 f9 0d 3a 9c a3 af bd 9b 00 dc bd 9a c0 df be
       0.00054158835 -0.08576128 -0.10742303 -0.4370163
000050 e2 8d a3 3e cd 80 f2 3e 9c e0 33 3e 0a 55 a9 3d
       0.31944185 0.47363892 0.1756615 0.08268173
000060 ab ec 18 bc a7 fb cb bc e9 ce 35 3f 12 c0 1f bf
       -0.00933377 -0.02490027 0.71018845 -0.6240245
000070 7c de 54 3d 5d bd ec bc a7 18 ef bd de 25 53 3e
       0.05196999 -0.02889889 -0.11674624 0.20619914
000080 f5 62 00 bf 8e 6a e7 be 38 7d 08 bf bb f3 e9 be
       -0.50150996 -0.45198482 -0.5331607 -0.45693764
000090 03 6e 28 3e a7 5d d6 bd 51 2e 30 bc f5 87 3f 3e
       0.16448216 -0.104670815 -0.01075323 0.18704207
0000a0 7a 55 64 3e 9a 31 80 be 6e c0 1f 3d 25 36 b6 be
       0.22298232 -0.25037843 0.039001875 -0.35588184
0000b0 c5 5a ea be 87 61 ae be 4f fe 17 3e b7 de 39 3e
       -0.45772377 -0.34058782 0.14843105 0.18151365
0000c0 9d 62 b3 bd 43 94 5a be 45 43 8e 3e 72 79 c4 3f
       -0.08759043 -0.2134562 0.27785698 1.5349562
0000d0 d8 a2 24 be a1 23 06 3e 4e e0 92 3e 0a 58 42 3d
       -0.16077745 0.13099529 0.28686756 0.04744724
0000e0 3d 6c 8d 3e c1 0f 7c bf 54 62 77 3e 2d d1 ed be
       0.27621642 -0.9846154 0.24158603 -0.4644865
0000f0 c6 4e 53 3c 21 8d 7b 3e 1b 83 55 3d e0 fe 6d be
       0.012897199 0.24565555 0.052126985 -0.23241758
000100 e2 e5 91 3d d5 d6 72 3e 43 87 e3 3c 1e ba 20 3e
       0.07123925 0.23714764 0.027774459 0.15695998
000110 9f 4c d6 3e 54 48 db 3e 65 83 11 bf b9 ea 51 be
       0.41855332 0.4282862 -0.5684112 -0.20499696
000120 73 0f 1e 3e 54 05 25 be b6 a5 07 3e b9 7f 3e 3f
       0.15435581 -0.16115314 0.13246807 0.7441364
000130 d4 b7 b4 3e ed 2f 05 be 8b 1a 36 be 5c cb 4c be
       0.352965 -0.13006563 -0.17783563 -0.1999945
000140 79 77 c3 be b4 96 ec 3e 0a 88 9a 3e 11 6d d4 be
       -0.38177088 0.46208727 0.30181915 -0.4148946
000150 e9 99 8d bd f5 2a a5 be 36 64 2a 3e e6 01 76 be
       -0.06914122 -0.32259336 0.1663979 -0.24024162
000160 1f a8 88 bd 38 7b 23 be 09 5c 97 3e ef 24 df 3e
       -0.066726916 -0.15964973 0.29562405 0.43582866
000170 e2 5a 00 3f 5c b1 00 be 7c a1 ef be 90 15 ab 3c
       0.50138676 -0.12567657 -0.4680289 0.020884305
000180 68 0d 4b 3d 01 0f 42 be 0b 54 32 3c 04 4f b5 be
       0.049573332 -0.18951036 0.010884295 -0.35411847
000190 75 42 2f 3f a1 5b 14 3e c4 02 6f bb bb e7 15 3d
       0.6846078 0.14488079 -0.0036470154 0.03659795
0001a0 27 0f ad be 16 c1 20 bf 91 ac 9a be 3e 5c ba be
       -0.33800623 -0.62794626 -0.30209783 -0.363985
0001b0 0f 17 d1 bd f1 0c 26 bc 35 8c 3d bd 96 4a 5a 3e
       -0.10209476 -0.010134921 -0.04627629 0.21317515
0001c0 5a 71 99 be 58 2e dd 3d a4 1c 6b 3e c6 04 5a be
       -0.29969293 0.10799855 0.22960144 -0.21290883
0001d0 cf 50 45 be f6 23 83 3e d3 4b 2c 3e 4c 84 85 3e
       -0.19269107 0.25613374 0.168258 0.26077497
0001e0 50 11 00 3d 42 fd 75 bc 0f b3 8f 3e 08 c6 33 3e
       0.03126651 -0.015013995 0.28066298 0.17556012
0001f0 40 f2 54 bf 8e a8 c7 bd 12 50 6d bb 6f ae 31 be
       -0.83182144 -0.09748946 -0.0036211056 -0.17351697
000200 15 a6 90 be 52 bb 90 bf de bd 6e 3d 35 13 b3 bd
       -0.2825171 -1.1307166 0.05828654 -0.08743898
000210 6a a8 7a be c4 5c 21 3d 27 00 f8 bc d6 04 d2 bd
       -0.24478307 0.03939511 -0.03027351 -0.10254829
000220 31 68 fe bd f9 d5 53 be f9 3e ba be ae 28 d7 3d
       -0.12422217 -0.20687093 -0.3637617 0.10505806
000230 b6 dc 09 3f 4e 17 a2 3e a6 86 4b 3e 45 39 02 bf
       0.53852403 0.31658405 0.19875583 -0.50868636
000240 7c 45 a1 be 10 2b d9 3d 93 81 60 3e 06 8c 80 be
       -0.31498325 0.10603917 0.21924429 -0.2510683
000250 2e df 2c bf c8 d4 b9 be 0e b7 91 be 45 73 34 bf
       -0.67528045 -0.36295152 -0.28459972 -0.7048839
000260 9b 34 76 3d 2b 2c 85 3e 4e c8 a7 3e 24 f7 bd be
       0.060108762 0.2601026 0.32770008 -0.37102616
000270 bc fd d6 3e 3d 49 ec bd ae 91 0f be 0a b8 86 bc
       0.4199046 -0.115374066 -0.14020416 -0.016445179
000280 5d 36 33 be 6b c4 87 be 0f 9a 24 bf d5 76 ba be
       -0.17501207 -0.26517043 -0.64297575 -0.36418787
000290 32 e6 10 3e 5b 76 5d bd 8a b6 30 3d f8 68 79 3e
       0.14150313 -0.05406795 0.043142833 0.24356449
0002a0 aa 47 a9 be 1d db 38 bf 1c 15 17 3f 1c 14 fe 3c
       -0.33062488 -0.7220934 0.59016585 0.031015448
0002b0 db fe 8d 3d 65 73 62 3e df 2d 0a bf dc f6 97 3d
       0.069333754 0.22114332 -0.53976244 0.074201316
0002c0 17 c9 f4 bd 91 8b 2d bf f7 f8 87 3e d3 34 e3 be
       -0.11952417 -0.67791086 0.26557133 -0.4437624
0002d0 78 e4 25 bd 7d d4 92 be 2a 43 81 3e 92 24 da 3d
       -0.040501088 -0.2867774 0.25246555 0.106515065
0002e0 e5 07 c1 3c 12 07 a3 3c bc 8f d9 be 85 ae 82 3e
       0.023563335 0.019900832 -0.42492473 0.25523773
0002f0 a2 2e 46 bf 65 51 01 3e 75 c2 67 3e 07 60 ad 3e
       -0.77414906 0.12628706 0.22632773 0.33862326
000300 4c 6d 2c be ef 7c 1c 3d e7 f2 51 bd 6f 2d bb be
       -0.16838568 0.038205083 -0.05125704 -0.365581
000310 b6 7c 4b 3e 6f 20 24 3f e9 db 84 3c f6 3f 9a 3c
       0.19871792 0.6411199 0.016218143 0.018829327
000320 8b 7c f2 3d 8b a5 77 bd 56 56 14 bf 37 96 04 bf
       0.11840161 -0.06046061 -0.5794424 -0.5179171
000330 e2 7c 14 bf 2c f1 64 3e c5 b1 b0 b9 e1 9d a7 3e
       -0.58003056 0.22357625 -0.00033701785 0.3273764
000340 64 39 bb 3d 59 6e dc bf 89 3f e3 bd 51 10 94 3d
       0.09141806 -1.7221175 -0.11096103 0.072296746
000350 a1 31 c3 3e 51 5d 87 be 6a ee 45 be 14 fc b0 bd
       0.381238 -0.26438382 -0.19329229 -0.0864183
000360 d7 14 b9 be f1 f1 fb be 38 86 81 3e 3a 54 c6 be
       -0.36148712 -0.49208024 0.25297713 -0.38736135
000370 50 e5 fc bc a3 26 c6 3e cb d7 19 3e 72 7d 2e be
       -0.030871063 0.38701352 0.15023725 -0.17040041
000380 bf 05 39 bf a1 8f 87 be c3 bc d6 be a7 9b 4c 3e
       -0.7227439 -0.26476768 -0.4194089 0.19981252
000390 7c 44 a3 3d 8e d7 42 3d 67 8c bf bd 3d 06 01 3e
       0.07972047 0.04756885 -0.093529515 0.12600036
0003a0 9f c6 07 3d 3f 30 0d 3e 8c ce e7 3e 14 f1 86 be
       0.033148404 0.13787936 0.4527477 -0.26355803
0003b0 f8 26 fd 3e f8 19 b2 be 88 59 0e bc 30 4f 52 3e
       0.49443793 -0.34785438 -0.008688338 0.2053802
0003c0 1a 50 86 3d 57 4e 9d 3e b1 cd 6e 3d 36 d6 0f 3c
       0.06558247 0.3072383 0.05830163 0.008779099
0003d0 b1 14 a1 3e 18 db 81 be 5d dc 96 3e 0a 5d 14 be
       0.314611 -0.25362468 0.29465 -0.14488617
0003e0 b0 a9 c4 3d 5d 7a 88 bc 6e d5 a1 bb 42 d2 04 be
       0.09602678 -0.01665991 -0.004938773 -0.12970832
0003f0 7a ef 23 3f c9 d4 bd 3e 9c b4 71 be 02 ce f3 bd
       0.6403729 0.37076405 -0.23604053 -0.11904527

input.bias f4 [256]
000000 c5 ca a8 be f7 0d ea bd ec fd cb be 8b bf ff 3b
       -0.329672 -0.11428445 -0.39842165 0.007804816
000010 3b a9 10 be 1f 68 b0 be 47 33 5d 3e cf 01 e2 bd
       -0.14127056 -0.34454438 0.21601592 -0.11035501
000020 70 12 75 3d 6d 11 f3 3e 7f c2 f8 be 62 26 23 3e
       0.059832036 0.47474232 -0.4858589 0.1593261
000030 55 97 26 3d 2c fb 60 bd 46 06 68 be 0d 7f 35 3e
       0.040671665 -0.054927036 -0.22658643 0.17724247
000040 52 23 a9 3d c7 df 2c 3e 7f ed da be 81 d9 05 be
       0.0825869 0.1688224 -0.4275932 -0.13071252
000050 66 13 a3 be 64 6a c3 be 1a fb 3f be 88 e0 55 be
       -0.31850737 -0.38167107 -0.18748131 -0.20886433
000060 47 85 f6 be b2 b1 bb 3d 65 07 38 3e 71 4f 56 be
       -0.48148558 0.09164752 0.17971571 -0.20928742
000070 24 fa 2f bd 27 32 9e be 2e f1 be bd 32 49 e0 be
       -0.042963162 -0.30897638 -0.09323345 -0.43805844
000080 8a 9e 9b be 44 b6 a4 be 4e 7a f5 be f4 76 93 3e
       -0.30394393 -0.32170308 -0.47944874 0.28801692
000090 0f 88 8b bd 7a 96 a5 bd 68 1d 00 bc d8 34 cb 3d
       -0.068130605 -0.08085342 -0.007819511 0.099221885
0000a0 b7 2e 0c be 5a 5d 1b be e5 81 c1 be 32 d8 7b be
       -0.13689695 -0.1517233 -0.37794414 -0.2459419
0000b0 08 a0 88 3e bd 10 7e be e1 b7 b5 3d 2b 07 ec 3c
       0.26684594 -0.24811073 0.08872963 0.028812012
0000c0 62 45 29 3e de 90 e2 3d 96 1c 99 be 2d 2c 06 be
       0.16530374 0.110627875 -0.29904622 -0.13102789
0000d0 b8 d9 a9 be 1e e4 24 be 17 96 1d be d9 16 da 3c
       -0.3317392 -0.16102645 -0.15389286 0.026622223
0000e0 33 b3 37 3e 32 ca 54 bd bc bb 93 be db 37 ab be
       0.17939453 -0.05195064 -0.28854167 -0.33441052
0000f0 70 d3 d5 3d 89 44 5d 3d 57 01 dd bc 6a 97 01 be
       0.10440719 0.05402044 -0.026978178 -0.12655416
000100 16 78 47 be 37 a6 9c bd cd 37 4e 3e b4 68 03 be
       -0.19479403 -0.076488905 0.20138474 -0.1283291
000110 48 fe ac be d5 77 62 be 2e 85 9b 3e 73 e7 a6 3d
       -0.3378775 -0.22116025 0.30375046 0.08149614
000120 e2 ee 25 3e c4 40 8c 3d 37 59 c2 be 61 3c 12 3e
       0.16204408 0.068482906 -0.3795869 0.14280845
000130 6d d3 7f be 4d e3 b4 3d 17 4f bb 3d 6a ad 77 3d
       -0.24982996 0.08832417 0.091459446 0.060468115
000140 75 e3 00 3d e7 ac c3 be bd fb 39 be 8d cc 75 3d
       0.03146692 -0.38217852 -0.18162437 0.060009528
000150 00 2f 51 be 3b 8f 7b bd 77 0d 37 be 91 f6 bd 3c
       -0.20428085 -0.061415892 -0.1787623 0.023188861
000160 01 1d 06 3f dc 4b cb be 66 14 3c 3e 1b 12 7c 3e
       0.52388006 -0.39706314 0.18367156 0.24616282
000170 d9 b2 b2 be fb e0 6a 3c 7d 3d 1e be c4 5f 6c bd
       -0.34902075 0.014335866 -0.15453143 -0.057708517
000180 5f 14 54 be 2b 32 4c be c2 0e 85 bd 09 4e 48 be
       -0.20710896 -0.19941013 -0.064969555 -0.19561018
000190 77 c7 14 bf e8 8f 46 be a6 8d 15 3e 23 2c be bd
       -0.5811686 -0.19390833 0.14604816 -0.09285762
0001a0 1e a7 33 3e 58 c5 c6 bd be 5d e5 3d a0 f1 b1 be
       0.17544219 -0.09705609 0.111995205 -0.34754658
0001b0 c2 06 3c be 77 43 ed be b0 f1 71 be 03 83 88 3d
       -0.18361953 -0.46340534 -0.23627353 0.066656135
0001c0 c7 17 d3 bd 21 bc 70 be d2 60 87 bd 67 e1 5a 3c
       -0.103072695 -0.23509265 -0.06610264 0.013359404
0001d0 bd 23 d7 be f1 70 2e be fc 1b 7f 3d ac 48 d0 3c
       -0.42019454 -0.17035271 0.062282547 0.025425278
0001e0 57 0f 37 be ce 4b b8 3c df ce 9b be cd 00 46 be
       -0.17876945 0.022497084 -0.30431268 -0.19336243
0001f0 e0 df 65 3e 4c 5d ed bd c8 bd 08 be 8a cb 96 bc
       0.22448683 -0.115900606 -0.13353646 -0.018407602
000200 ca aa 7e 3e 63 b1 57 3d ad 91 c3 be ea 03 e2 be
       0.24869838 0.052659404 -0.3819708 -0.4414361
000210 6c 35 ac be 7d fe a0 bd e1 b1 08 be 8d 1a 98 be
       -0.33634508 -0.0786104 -0.13349105 -0.29707757
000220 32 22 89 be f5 e3 19 bd 1f b6 4b be 74 be ba be
       -0.267839 -0.037570912 -0.19893692 -0.3647343
000230 77 06 86 bc b7 6d 64 bd 71 e3 bb be 29 a8 42 bd
       -0.016360505 -0.055768695 -0.36696962 -0.04752365
000240 f0 b8 72 be 02 7b d7 bc 95 06 c9 3d 17 c8 1c be
       -0.2370336 -0.026303772 0.098157085 -0.15310703
000250 07 05 80 bd 99 f2 a0 be 14 02 92 be f8 27 ae be
       -0.06250959 -0.31435087 -0.2851721 -0.3401487
000260 7b a8 f4 3d b2 ef 60 be a8 71 34 3e 1f 5b 21 3d
       0.119461976 -0.21966437 0.17621481 0.03939354
000270 ec 4c 9c be 7a 0b bc 3e 7f 13 0d be 65 6d 86 bd
       -0.30527437 0.36727506 -0.13776968 -0.06563834
000280 71 a8 b6 be 43 6b e0 bd 7c e5 28 be 31 66 b0 be
       -0.35675386 -0.109579585 -0.16493791 -0.34452966
000290 de d2 9a 3c 82 35 5c be e7 6f 31 3e 84 ec 1a 3e
       0.018899377 -0.21504787 0.17327844 0.15129286
0002a0 e3 30 02 3e 0c 74 a7 bc d8 e0 c3 be ac 4f b7 be
       0.12713961 -0.020441078 -0.3825748 -0.35802972
0002b0 ba b4 05 3c 0b 25 99 be c3 a3 db bd 78 ee 15 3d
       0.008160764 -0.29911074 -0.107245944 0.036604375
0002c0 cf 1b 12 be 39 cf 3c be bc b3 88 3e 35 60 a7 be
       -0.1426842 -0.18438424 0.26699626 -0.32690588
0002d0 4e 46 49 3d d8 5d 4f 3e 4c 83 2f bc a9 21 84 bd
       0.049139313 0.20250642 -0.010712456 -0.06451733
0002e0 4d 24 5c be 2e 0c 44 be bf a5 a6 be 70 f4 5d 3e
       -0.21498223 -0.19145271 -0.3254833 0.21675277
0002f0 6c 83 7e 3e 7e 48 2b bd 04 79 a8 bd 17 ab 35 3c
       0.24854821 -0.04181718 -0.08226207 0.011088154
000300 92 63 74 bc fa 72 e3 be 15 1a 9e be 37 4b 2d be
       -0.014916318 -0.44423658 -0.30879274 -0.16923223
000310 3a e0 f8 ba b4 32 44 3e 8d b4 66 be b3 10 48 bb
       -0.0018987723 0.19159967 -0.22529812 -0.0030527532
000320 b2 75 f9 bd c8 c9 a1 be a8 c2 5c be 72 cb 83 3e
       -0.12180652 -0.3159926 -0.2155863 0.25741154
000330 e6 15 2c bd a7 ed 46 3e d9 23 91 be 95 9d 05 be
       -0.04201307 0.19426595 -0.28347662 -0.13048394
000340 70 bc fd 3d 03 74 a6 bd 3b f3 fa be 27 6e a6 bc
       0.12389457 -0.08127596 -0.49013695 -0.020316197
000350 45 a7 6d bc 0a 8f 13 be d1 44 3f 3e d5 14 b0 3d
       -0.014505212 -0.14410034 0.18678595 0.085977234
000360 22 d0 3f 3e bb 23 c0 be bc 9c 42 be ce 31 2e 3c
       0.1873174 -0.3752726 -0.19005102 0.010631992
000370 3b 69 71 be 02 0b 54 be 59 a4 0e 3f ac d0 5c 3e
       -0.23575298 -0.20707324 0.55719525 0.21563977
000380 4d 19 62 bd d9 6d 0c 3d 9f 69 a7 3d 8f 31 e3 3b
       -0.05519991 0.034284446 0.081744425 0.006933398
000390 75 bf 17 be 9d 9c bb be f5 8a 02 be 8c d0 1e be
       -0.14819129 -0.36642924 -0.1274832 -0.15509242
0003a0 ef 44 20 bb 7b b1 ca bd a9 80 60 be aa c9 c7 bd
       -0.002445515 -0.09897133 -0.2192408 -0.09755261
0003b0 e4 9b c4 3e a9 2d ba be 55 8d c7 be 8c a5 b3 bc
       0.38400185 -0.3636296 -0.38975015 -0.021929525
0003c0 77 69 0f 3b 1a 9d e1 bd e5 a2 94 bc f0 18 24 3e
       0.002188293 -0.11016293 -0.01814408 0.16025138
0003d0 c4 ca d6 3d 38 1d b9 3e 25 3d c3 3c 7b 32 5b be
       0.10487893 0.36155105 0.023832867 -0.21405976
0003e0 32 17 23 3c ba e6 89 3e c1 fd 44 bd 09 a1 e0 be
       0.009954261 0.26933843 -0.04809356 -0.4387286
0003f0 08 d4 6f be 04 d4 be be ba 31 9f be 43 90 93 3e
       -0.23420727 -0.3727113 -0.31092626 0.28821

hidden_layers.0.weight f4 [128, 256]
000000 5f 22 82 bd 8c f8 9b bd e4 86 02 3d 87 13 6a bd
       -0.06354212 -0.07615766 0.031866923 -0.05714753
000010 0a 1a 3b 3d 9c 88 9f 3c a3 05 8b bb 9e 5e 4b 3d
       0.04567913 0.01947432 -0.0042426153 0.04965078
000020 d2 24 a0 bd e3 64 d0 3c 8d 41 1a 38 4e 8c 2b bd
       -0.07819523 0.025438732 3.677751e-05 -0.04188185
000030 82 43 32 3c d8 20 b2 bc f1 a7 39 bd ab fe e1 bc
       0.010880353 -0.021744177 -0.045326177 -0.027587255
000040 dc 63 f1 bc 43 86 4d 3d 36 85 1b 3d 2b 05 dc bc
       -0.029466562 0.05017687 0.037968837 -0.026857933
000050 cc 03 63 bd 0c 78 05 bc 75 d9 4e b9 d6 4e b0 3c
       -0.055423543 -0.008146297 -0.000197267 0.021521967
000060 00 c9 03 3b 70 3f 06 bb f7 94 47 3c 3a 41 11 bd
       0.002010882 -0.002048459 0.012181512 -0.035462596
000070 65 b1 30 bd d3 c9 76 bd 17 22 aa bc dc 94 9e 3c
       -0.043137927 -0.06025107 -0.020768208 0.019358091
000080 7e a7 0f bc 94 7d 78 3d 40 57 43 bc 02 0c 27 bd
       -0.008767961 0.060666636 -0.0119226575 -0.040782936
000090 f8 aa 2a 3c 54 2f 90 bc 28 61 0c bc 1e a8 23 3d
       0.010416739 -0.017600693 -0.008568086 0.03995525
0000a0 80 0c eb ba 6e a0 5f 3d b1 66 42 bc e1 b4 32 bd
       -0.0017932802 0.054596357 -0.011865304 -0.04362953
0000b0 12 f8 d0 3c 32 d3 11 bd 90 1b 62 bc 98 99 1c 3c
       0.025508914 -0.035601802 -0.013800517 0.009558104
0000c0 a8 03 fd 3b 6a 33 6c bd a0 ee 48 3b c6 3c 15 bd
       0.007721383 -0.05766622 0.003065981 -0.03643491
0000d0 56 fb 25 3d 60 42 ac 3c 85 09 a9 3b b7 f3 b1 3c
       0.040522896 0.021027744 0.0051586055 0.021722658
0000e0 21 2b 91 bc cf d4 c6 bc 0c fa f4 3c f2 18 60 bd
       -0.01772076 -0.024271397 0.029904388 -0.05471129
0000f0 c6 f3 30 bd cf 12 32 39 57 04 37 bd 00 95 6a 3b
       -0.04320123 0.0001698241 -0.044681873 0.0035794377
000100 8b 76 21 3d f6 fa e0 bc f6 fc 95 bd 64 be e8 bc
       0.039419692 -0.027463418 -0.07323639 -0.028411098
000110 c7 81 18 3d 40 f6 60 bc 2c 80 e0 bc cb 42 ff 3b
       0.03723314 -0.013730586 -0.027404867 0.0077899448
000120 e0 88 fd 3b 19 41 91 bd 7b ca 42 3d 3b 97 9e 3c
       0.007737264 -0.070924945 0.04755638 0.019359222
000130 ea 82 5e 3d e8 f9 e6 3b c8 1d 29 bd 09 7f 26 bd
       0.054324068 0.007048834 -0.041288167 -0.040648494
000140 6d e7 23 3c a0 81 46 bc ab cf 04 bc 41 b0 a5 bd
       0.010003907 -0.012115866 -0.0081061525 -0.080902584
000150 36 9b 4f bd 55 f9 f0 3b e3 af be bc f4 24 f6 bc
       -0.05068513 0.0073539414 -0.023277229 -0.030046917
000160 c9 99 99 bd 0e b4 22 3d d5 79 8a bc 1a eb 83 bd
       -0.07500035 0.039722495 -0.016903797 -0.064413264
000170 1c fc 76 3d ad 1e 26 3c e6 e5 6c bd 36 70 4b bd
       0.060299024 0.01013915 -0.057836436 -0.04966756
000180 46 60 77 3d c9 6d 85 bb d2 f6 19 bd e3 cf 81 3c
       0.060394548 -0.0040719253 -0.0375889 0.015846198
000190 cb 5f ec bc 50 4b 8c 3b 90 87 17 bd 87 bb 6a bd
       -0.028854271 0.004281439 -0.036994517 -0.057307746
0001a0 f2 03 2a bd b7 65 39 bc 3c 88 86 bd dc 50 7c 3d
       -0.04150767 -0.011315755 -0.065689534 0.06160055
0001b0 b5 61 6f bb 88 02 c4 bc 4c 5a ca 3c af 2a 9b bd
       -0.0036526744 -0.023926988 0.02470126 -0.075765006
0001c0 8b 1f 15 bd c8 4e c0 3c 76 ca 96 bd ac 2e ff 3c
       -0.036407035 0.023475066 -0.07362835 0.031150185
0001d0 98 35 72 bc 64 74 55 bd 91 e2 87 bd 64 d1 a1 3c
       -0.014783286 -0.052112952 -0.06635011 0.019753166
0001e0 e4 83 18 3c 62 f4 05 bd f5 27 73 bd 70 8b 13 bd
       0.009308789 -0.032703765 -0.059364278 -0.03602165
0001f0 fa 90 5c bc 40 04 15 3b 68 0f 83 3c de c7 d7 3b
       -0.0134622995 0.002273813 0.015998557 0.0065851053
000200 80 b2 56 bb 2c 57 8c 3c ad 6c 66 3d 5d 84 02 3d
       -0.0032760203 0.01713141 0.056255985 0.031864513
000210 f5 a8 15 3d 3c cd ac bc b3 b6 29 bd f0 82 e2 bb
       0.036538083 -0.021093957 -0.041434 -0.0069125816
000220 7c 53 97 3c 28 3f cf 3c f1 dd d2 bc 6f 14 37 bd
       0.018472426 0.02529867 -0.025740596 -0.04469722
000230 0d f7 80 bd ba 74 76 3d e4 84 17 bd b0 69 0a bc
       -0.06297121 0.060169913 -0.03699197 -0.008448049
000240 bd c0 6e bd 3c d4 fd bc 3b f5 08 bb 13 40 c9 3b
       -0.05828928 -0.03098499 -0.0020898122 0.0061416714
000250 d8 67 ca bc 5c 24 e0 bc 14 b3 ef 3c 22 d8 03 bd
       -0.02470772 -0.027361088 0.029260196 -0.032188542
000260 71 1e 51 bd 90 c2 1f bc 1e bd 61 3d 64 db d9 bb
       -0.05105442 -0.009750977 0.055111997 -0.006648468
000270 48 7d 0d 3c 1d d7 df bc 64 cb 0f 3d f4 c5 fd bc
       0.008635826 -0.027324254 0.035106078 -0.03097818
000280 20 92 2d 3d f8 e9 71 3c b6 c2 2b 3b 75 54 2d bc
       0.042375684 0.014765255 0.0026208586 -0.010579218
000290 94 31 6f bd 13 3d fa 3c 19 7e e9 3c 7f cb 5a bd
       -0.05839689 0.0305467 0.02850251 -0.053416725
0002a0 f5 8f a0 bd 72 67 15 bd c0 33 ad 3c f0 73 5c bd
       -0.078399576 -0.036475606 0.02114284 -0.053821504
0002b0 44 40 1a 3d 28 a8 12 bd 97 41 79 bd f0 38 e1 3c
       0.037658945 -0.035804898 -0.060853567 0.02749297
0002c0 4a b6 1a bd f0 6b 21 bc 11 f7 22 bd 80 bb a2 bb
       -0.0377715 -0.009852394 -0.039786402 -0.0049661994
0002d0 d0 e4 98 bd b4 cd 6a bd a8 2d 3f 3c f0 11 e8 bb
       -0.074655175 -0.05732508 0.0116686 -0.0070822164
0002e0 78 54 6d bd 8e 45 b2 bc d6 a8 69 bd d4 d8 46 3c
       -0.057941884 -0.021761682 -0.05704578 0.012136657
0002f0 6b 55 ce 3c e6 45 78 3d cf 67 91 bd 6e 00 e4 bc
       0.025187215 0.060613535 -0.07099878 -0.027832236
000300 37 b4 f1 3c eb e4 58 3d 57 67 76 bd cd 5f 2f 3c
       0.029504878 0.05295269 -0.060157146 0.010703993
000310 fe f2 af 3c be 55 1a 3d 94 7d 30 bd 8f 0f c7 3c
       0.021478172 0.037679426 -0.04308851 0.024299411
000320 39 9a 42 bd f5 91 5e bd 90 52 4b 3c 38 ae 05 3d
       -0.04751036 -0.054338414 0.012409821 0.03263685
000330 7b 45 3b bd 32 ae 08 3d 70 8c ea bb 86 1b 8b 3b
       -0.04572056 0.03336925 -0.0071578547 0.0042452244
000340 5a 30 35 3d 73 5b 4f 3c 41 81 93 bd 03 5f be bc
       0.044235565 0.012656081 -0.072023876 -0.023238664
000350 a9 a8 ff bb 8a f5 57 bd 23 2e 22 bc 36 4c 4a bd
       -0.0078020883 -0.0527244 -0.009898695 -0.049389087
000360 40 8c 4b bc d4 29 b7 3c 68 bb 5f bd ca 21 36 bd
       -0.012423575 0.022358812 -0.054622084 -0.044465818
000370 80 86 e9 3c c4 31 7d bd bf fb 1c 3d 72 65 45 bd
       0.028506517 -0.06181504 0.03832602 -0.04819245
000380 14 53 b1 bb 5a 1e 47 bb df 77 a5 3c b6 b0 71 bd
       -0.005411515 -0.0030383081 0.02019876 -0.059006415
000390 78 cd 09 3c f0 75 dc 3c da 92 5b 3d d5 63 52 bd
       0.008410804 0.026911706 0.053606845 -0.05136474
0003a0 93 9c 52 bd 68 27 95 3c 37 e3 b5 bc 78 c1 2c bd
       -0.051418852 0.018207267 -0.022203071 -0.042176694
0003b0 6c 76 57 bd 56 4f 63 bd b2 22 33 bd c7 22 fb bc
       -0.05260317 -0.055495583 -0.04373426 -0.030656232
0003c0 e1 1d 71 bd 44 93 60 bd 0c e9 7a bc 45 7c 03 3d
       -0.058866385 -0.054827943 -0.015314352 0.032100935
0003d0 9a 6a 0a bd c2 b8 5f bc 00 fa 49 ba 4e 71 13 3c
       -0.03379307 -0.01365489 -0.00077047944 0.008999182
0003e0 1f 1d 82 bd 34 2e 68 ba ae b1 5c 3d fd 64 ca 3c
       -0.06353211 -0.00088569825 0.053880386 0.024706358
0003f0 ba 39 a8 bd 08 27 1a bc 00 ba 18 3a 38 99 ce bc
       -0.082141355 -0.00940872 0.0005826056 -0.025219545

hidden_layers.0.bias f4 [128]
000000 5f 5e d0 3b ce 4e 5d bc ea 3d 11 3b 21 1a 99 3d
       0.006358906 -0.013507558 0.0022162148 0.07475687
000010 54 f3 01 bd a1 a4 0f 3b 92 3b 24 3d df 49 b9 bd
       -0.031726196 0.0021918195 0.040095873 -0.09047293
000020 31 47 22 bd 7c 15 44 be 99 34 b4 3c 5b 94 66 be
       -0.039618675 -0.1914882 0.021997737 -0.2251753
000030 f2 2d 30 be a0 24 5d 3e ed 37 a7 3d 39 7e e7 3c
       -0.17205027 0.21596003 0.08164964 0.02825843
000040 4f 1e 91 3d 34 36 6a bd 72 fb 44 be c3 5c 97 be
       0.07085859 -0.0571806 -0.19236544 -0.2956296
000050 88 f5 55 bd 9b 4d 26 bd 22 1f 04 be 3d ab 8d bd
       -0.05223611 -0.040601354 -0.12902501 -0.06917427
000060 a3 36 20 bb 09 64 32 be 53 df 0d 3d 08 be 16 bd
       -0.0024446629 -0.17420973 0.034636807 -0.03680232
000070 65 5b b9 bd 53 fd 51 bd dd 62 51 be bf e4 f5 3d
       -0.09050635 -0.05126698 -0.2044787 0.120065205
000080 5c ef be 3d 14 00 73 bd 33 e1 72 bd 3b 43 bf 3c
       0.09322998 -0.059326246 -0.059296798 0.023347488
000090 46 f3 69 3c ab bb 27 3d 43 da 36 3e c5 41 03 3d
       0.014279192 0.04095046 0.17856698 0.032045145
0000a0 01 06 f8 bd a4 94 c8 bd 95 86 23 be a2 c4 87 be
       -0.1211052 -0.09793976 -0.15969308 -0.26517206
0000b0 7f b9 8b be 6b 5a da be c4 30 5a 3d df 40 22 3c
       -0.2728996 -0.42647108 0.053269163 0.009903162
0000c0 8a 5a b9 bd 80 de 93 3c 8f 4b 95 bd 6b 08 bd 3d
       -0.09050472 0.018050432 -0.07289802 0.09230121
0000d0 5f c8 ed 3c 78 3e 95 3d 9a 2d 24 3d 58 d0 04 3e
       0.029026208 0.072873056 0.04008255 0.12970102
0000e0 ff 13 a6 bc 27 cd 33 be cc 5e 66 3c d9 0e ca bd
       -0.020273207 -0.17558728 0.014060687 -0.09866113
0000f0 80 3b 89 bc 9b da 2c be 4b 04 5c be 6b 84 11 be
       -0.016752005 -0.16880266 -0.21486013 -0.1421067
000100 38 ef 50 bd d9 c7 e9 3d d1 b1 ee bc 1a 69 f9 bc
       -0.051009387 0.11415071 -0.029137524 -0.030445624
000110 43 1e 69 be 1a c8 08 bc 1d b1 d5 3b fd e2 65 bd
       -0.2276545 -0.008348489 0.0065213577 -0.056124676
000120 20 d0 64 bd fe 61 f3 bd 2d dd 32 3c 47 13 a4 3d
       -0.055862546 -0.11883925 0.01091699 0.08011489
000130 ad 3e e7 bc d0 2d 92 bc 9c 1d 53 be 47 2c d8 3d
       -0.028228128 -0.01784411 -0.20616764 0.1055532
000140 65 f8 84 bd 6c 2e af 3b 1b 21 97 3c cd 9e 61 bc
       -0.0649269 0.00534611 0.018448403 -0.013770771
000150 e1 be 49 be b7 3f 5a bd 65 ec f9 bd 19 68 fb 3d
       -0.19701721 -0.05328342 -0.12203292 0.122757144
000160 e7 69 04 3e e6 a9 0b bd 00 e5 ca bd cb 02 e1 bd
       0.12931024 -0.034097575 -0.099069595 -0.10986861
000170 79 e5 5d 3b 78 4f 89 3a 68 97 38 be 31 ef 08 bd
       0.00338587 0.0010475954 -0.18026507 -0.033431236
000180 d1 b4 13 be 55 f7 1a be c4 67 3b 3d 12 2b da 3d
       -0.14424445 -0.15133412 0.045753255 0.10652746
000190 70 de 34 bb d9 07 93 3c be d6 13 3e 3a 29 31 3d
       -0.0027598403 0.017948078 0.14437386 0.043252207
0001a0 6c 05 8f 3c 21 14 a8 3d c2 15 68 3d 3c e5 1e be
       0.01745864 0.08206964 0.056661375 -0.15517133
0001b0 44 37 60 bd 65 06 e2 3c cf 79 69 bd 37 20 83 3d
       -0.054740205 0.02759094 -0.05700093 0.06402629
0001c0 49 44 1f 3e a3 16 31 bc 20 63 88 be de b8 a1 3c
       0.15553392 -0.01080862 -0.26638126 0.019741472
0001d0 fb d3 fe bd 4c 9f 37 bd 70 69 91 3e e8 8b d8 3c
       -0.12442776 -0.04482965 0.28400755 0.0264339
0001e0 1c bc bd 3c 52 2b c1 bb 40 bf 0d b6 80 c5 8a be
       0.023160987 -0.0058950568 -2.112196e-06 -0.27103806
0001f0 cf ef 84 be ce a4 91 3c a6 6b 69 3c d8 19 9b bd
       -0.2596421 0.01777878 0.014246857 -0.07573289

hidden_layers.1.weight f4 [64, 128]
000000 5a 15 51 bd df b7 1a 3d 59 74 a5 be fd 14 c4 be
       -0.051045753 0.03777301 -0.3231533 -0.38297263
000010 3c 44 8e 3b c1 85 04 bf 95 a9 5b 3f c5 af fd be
       0.0043416303 -0.5176659 0.85805637 -0.49548164
000020 6a bf 2c 3d 57 a8 6e bd 93 12 bb be 3b 9d 6b 3e
       0.042174734 -0.05826601 -0.36537609 0.23009197
000030 b8 67 e0 be e0 dd d2 be 13 9d b0 3e 78 14 81 3e
       -0.4382913 -0.41184902 0.34494838 0.2521093
000040 dd 0b 01 bf 13 80 2e 3d 5e d5 85 be c9 f0 ac bc
       -0.50408727 0.04260261 -0.2613935 -0.021110909
000050 02 b4 24 bd 35 2d c5 bd 32 33 a9 bd cf d6 95 3e
       -0.04021073 -0.09627763 -0.08261718 0.29265448
000060 9b e5 9f bc 18 cf 90 3d f4 5b a0 3e e8 b0 61 3d
       -0.019518664 0.0707075 0.31320155 0.05510035
000070 fc e7 1f bf cf 6f 8a 3c 32 ae 30 bf 0d 0e e4 bc
       -0.62463355 0.016899018 -0.690158 -0.027838731
000080 ba 7d a5 3e da 71 8f bd 83 16 62 be ba 71 3c 3f
       0.32322484 -0.07004137 -0.220789 0.7361103
000090 c5 20 55 3f dd c9 92 bf 13 57 f8 3e 2a 97 ae 3d
       0.8325313 -1.1467854 0.48503932 0.08524926
0000a0 d9 09 94 3e 41 ab 20 bf c7 2c 35 3c a9 4c 43 3c
       0.28913763 -0.6276131 0.011058039 0.011920133
0000b0 36 71 2f 3e e9 04 40 be a3 7d 92 be d3 0b 0b bf
       0.1713303 -0.18751873 -0.28611478 -0.5431492
0000c0 8f 8a ac 3d 23 11 69 bd e9 e2 f1 bb 64 d2 e3 3e
       0.084248655 -0.05690111 -0.007381786 0.44496453
0000d0 ef cd 3d be 20 fe 8d be 1d 08 10 bf cf f8 7a 3c
       -0.18535589 -0.27732944 -0.5626238 0.01531811
0000e0 4f 71 11 3e 00 22 46 3d 1a 3e f4 3d 2e 8c 90 3d
       0.1420338 0.04837227 0.119259074 0.07057987
0000f0 57 c0 24 bd c9 80 cd 3c ff 65 88 bc 9f a6 62 3e
       -0.040222492 0.025085824 -0.016650198 0.22133873
000100 9b ed f7 3d 6e 3f d7 be 52 2d 42 be 17 64 99 3c
       0.121058665 -0.4204058 -0.18962601 0.018724484
000110 d9 38 a0 3f bf d2 df 3d ff 5a 30 bd df 9f 7d bd
       1.2517349 0.109288685 -0.04305553 -0.061920043
000120 0a 5d 99 be 46 78 87 bd bd 27 6b be cf 5f a1 3d
       -0.29953796 -0.06614737 -0.22964378 0.07879602
000130 12 1f 24 3c b2 ff a4 3e aa 76 98 bc 06 ee 3c bf
       0.010017173 0.3222633 -0.018611271 -0.73800695
000140 13 1f ee 3b ee 74 75 3d df 9f 16 3e fd b5 f9 3c
       0.007266888 0.059925966 0.14709423 0.030482287
000150 13 61 8f 3d 91 47 50 be 26 f5 5c bd e1 8d 8e 3d
       0.07000937 -0.203398 -0.05394473 0.06960655
000160 9c d9 8a bd 12 3f a9 be 27 a2 98 3d bc 84 db 3e
       -0.06779787 -0.3305593 0.07452803 0.42874706
000170 c9 d0 cf bd 38 43 ab 3c da fb b1 3d 42 e0 3a be
       -0.101472445 0.020906076 0.08690615 -0.1824961
000180 e6 7c bf bf f4 bc af bc 7a 71 20 3f 33 45 6f bd
       -1.4959991 -0.021452405 0.6267315 -0.058415603
000190 ef 5d ed 3e bd d9 a2 3c be 17 2d 3d 64 36 eb bd
       0.46360728 0.019879216 0.04225897 -0.114849836
0001a0 c8 dd ee 3b 79 53 b1 bd e3 1d e4 3c 5d 42 43 bc
       0.007289622 -0.08658499 0.027846282 -0.011917678
0001b0 09 79 05 bd 6e f3 93 bd 56 8a e2 bc c8 21 32 bd
       -0.03258613 -0.07224165 -0.027653854 -0.043489248
0001c0 7b 77 a7 bd 10 69 04 bc 44 f0 8a bc ae c1 64 bd
       -0.08177086 -0.0080816895 -0.01696027 -0.05584877
0001d0 03 22 54 3e 8a fe fb 3c 63 6f 63 bd 30 00 ad be
       0.207161 0.030761022 -0.05552615 -0.33789206
0001e0 aa 56 bd 3d cd 95 c0 bd d4 3f 47 be 54 c0 17 be
       0.092450455 -0.09403572 -0.19457942 -0.14819461
0001f0 a9 4c 5a be bc 6a 81 3d 19 c0 c0 3c 05 dc fb 3c
       -0.21318306 0.06319186 0.0235291 0.030744562
000200 29 94 b7 bd e1 c9 f2 3c 1b 20 0c 3f ef 6a 04 bf
       -0.08963806 0.029637279 0.5473649 -0.5172567
000210 cb e9 af bb ab 29 2f be dd 1d 55 3e f9 3a 9b bd
       -0.0053684465 -0.17105739 0.20812173 -0.075796075
000220 de 14 0c 3d 32 4d 79 bd dd 65 42 be 02 c7 e3 3e
       0.034199588 -0.060864635 -0.1898417 0.44487768
000230 cd 02 ac bd cc 2b c6 3d f1 f4 96 bd 34 b7 31 3e
       -0.08398972 0.09676322 -0.073709376 0.17355043
000240 17 37 8e bd a3 5b 9b bc 7a 62 5f 3e bf 2b ab 3e
       -0.06944101 -0.018964594 0.2181491 0.33431813
000250 cc 6b 94 3d 1a 6b 47 3d 7a d2 fa bc ea dd 68 3e
       0.07247123 0.048686124 -0.030617941 0.22740903
000260 82 12 39 3e 39 1a 88 3e c1 6d f6 3d 79 53 99 bd
       0.18073466 0.26582506 0.12032653 -0.07486624
000270 f8 04 c2 3d 54 6f b6 3c 5b 85 76 bf 5f d3 51 3e
       0.09473604 0.022269882 -0.96297234 0.20490788
000280 1e b4 08 3f 76 5d 87 bb 60 4e 26 3d 27 5d 09 be
       0.53399837 -0.0041310145 0.040602088 -0.13414441
000290 1a 33 ed be 6a 3a 17 bf 00 fd 8c 3e 56 41 6e 3e
       -0.4632805 -0.5907351 0.27536774 0.23267111
0002a0 d1 ea 35 3e 98 a5 21 bf ef 51 98 3e 4b 28 26 3e
       0.17765357 -0.631433 0.2975001 0.16226308
0002b0 42 dc 27 3e 28 05 52 3e af 4b 83 3e e0 f2 16 3e
       0.16392615 0.2050978 0.2564368 0.14741087
0002c0 13 60 38 3e f5 3f 00 bd 42 6e c7 bd a7 4b 2f be
       0.180054 -0.031310994 -0.09737827 -0.17118703
0002d0 eb 2a 57 bf df 8f 1a bf a2 b8 3c bd 87 9b 2e 3e
       -0.8404986 -0.6037578 -0.046074517 0.17051516
0002e0 5c b9 b8 3e 69 5d 8a 3e 45 ec d9 be fd 13 bb 3e
       0.36078918 0.2702439 -0.42563072 0.36538687
0002f0 4d 0a d1 3b eb 96 c9 3e c3 f5 92 3e e8 41 c3 bf
       0.006379402 0.39372954 0.28703126 -1.5254488
000300 e0 2d 75 3e e5 8d a3 3d cc d2 90 3e 4b fa bb 3d
       0.23943281 0.079860486 0.28285825 0.09178599
000310 60 3a f6 3e 21 e7 83 3e c6 6c a0 3e 85 72 32 3c
       0.48091412 0.25762275 0.31332988 0.010891561
000320 3c 66 0f 3f 66 f0 b3 3e ba bd 7a 3e db 1c 02 3e
       0.5601537 0.35144347 0.24486437 0.1270632
000330 dd 10 4b bd fd 9f b7 be d5 df 73 3e 1b 05 c9 bc
       -0.04957663 -0.3586425 0.23815854 -0.024538567
000340 1d b4 51 bd fa 00 12 3d 8e 33 06 bf e1 c6 f1 3e
       -0.05119716 0.035645463 -0.52422416 0.47222045
000350 7b 0c 7a 3e 38 d5 3b 3e 19 db 72 3e e8 04 03 3e
       0.24418823 0.18343055 0.23716392 0.1279484
000360 d6 53 82 3e 8f e2 5f bf 12 73 fb 3e 30 9e 81 3e
       0.25454587 -0.87455076 0.4911123 0.25316
000370 41 80 9d 3e 4b 7b 7f 3d 57 cf 7a 3e 07 94 62 3e
       0.30761912 0.06237344 0.24493156 0.2212678
000380 6f 97 c4 3e f5 3e 3f 3d c0 93 98 bd 59 5b e4 3d
       0.38396785 0.0466909 -0.07450056 0.11150236
000390 44 ee cc bd bf 83 bc 3e e0 2e a2 3e 4a da 86 3e
       -0.10006383 0.36819264 0.31676388 0.26338416
0003a0 8d e6 1a 3c 89 1b 44 3e d1 74 f1 3b eb d5 19 3d
       0.009454382 0.19151129 0.007368662 0.037557524
0003b0 60 6d 11 bc 05 1f 87 3e b1 24 42 3d 67 2f 5c 3e
       -0.008876175 0.26390854 0.047398273 0.21502458
0003c0 e3 ac a8 3d fd 5f be 3d e9 d8 0c 3e ab 0d 92 bb
       0.082361005 0.09295652 0.1375462 -0.0044571958
0003d0 b6 8a ca 3e 28 78 4f bc 05 ab 4a 3e 93 32 16 be
       0.39558953 -0.012662925 0.19791801 -0.1466773
0003e0 15 09 8a be 90 86 9c 3d 78 e8 64 bf 99 4a 76 3e
       -0.26960054 0.07642853 -0.8941722 0.24051894
0003f0 4e f9 f8 3d 05 b1 0e bd 1b d1 a9 bd 1e 69 9e 3d
       0.12156926 -0.034836788 -0.08291837 0.07734893

hidden_layers.1.bias f4 [64]
000000 af b7 8c 3f 15 66 1f bf c5 4d 3c 3e 30 a9 df 3f
       1.0993556 -0.6226514 0.18389042 1.7473507
000010 79 2e 91 be e8 1f 64 be f1 b4 45 3e 90 1b eb 3f
       -0.28355768 -0.22277796 0.19307305 1.8367786
000020 15 b1 ad bd 3f 51 29 3e 2c d0 e8 3f 73 a3 f5 3f
       -0.08481041 0.16534899 1.8188529 1.9190506
000030 1a ac fc 3f 29 8e 1a 3e 57 44 cf 3e 92 c8 31 3e
       1.9740021 0.15093292 0.40481827 0.17361668
000040 9c bd ef 3f c6 6b e7 3f b5 30 ee 3f 23 53 2a be
       1.8729739 1.8079765 1.8608614 -0.16633277
000050 20 e9 93 be 39 2a ed bd 94 77 f7 3f 0b 7f e3 3f
       -0.28888798 -0.11580319 1.9333367 1.7773145
000060 68 bf e4 3f b2 81 8c be af 3a 4c be c0 ec eb 3f
       1.7870913 -0.274427 -0.19944261 1.8431625
000070 b1 87 67 3e c1 c3 e4 3f a1 6d 2b be 72 66 15 3c
       0.22610356 1.7872239 -0.16741039 0.009118663
000080 37 57 74 be fc cd f4 3f 9d 59 de 3f 0e 5e b1 be
       -0.23861395 1.9125361 1.7371098 -0.3464207
000090 dd 24 f3 3d aa 56 f8 3e 8a fc d2 3f d5 44 27 3e
       0.118722655 0.4850362 1.6483319 0.16334851
0000a0 5e ef 35 3f bb 62 bb 3f 2e 7b 32 3e a8 9b d1 3f
       0.7106837 1.4639505 0.17429802 1.6375628
0000b0 5e 2b 66 3e f0 18 26 be 99 30 82 be 9b 1e 2c 3f
       0.22477481 -0.1622045 -0.25427702 0.672342
0000c0 fe c7 d6 3f 5b 73 f4 3f da 97 8c be 81 4f 1a bf
       1.6779783 1.9097704 -0.27459604 -0.60277563
0000d0 72 66 92 3d 2f 6d e3 3f c1 c2 f5 bd 45 c9 ee 3f
       0.07148446 1.7767695 -0.12000037 1.8655173
0000e0 c5 cb 3e be 33 b9 89 be 12 0d 40 be 4c e4 bd 3f
       -0.1863242 -0.26899108 -0.18754986 1.4835296
0000f0 09 9d 78 bd 84 a3 34 3d b1 63 ed 3f d2 62 a0 be
       -0.060696635 0.044101253 1.8546048 -0.31325394

output.weight f4 [4, 64]
000000 1f b9 2d 3f a9 63 8e be 79 e2 d3 be 09 c9 36 3f
       0.678606 -0.2781041 -0.41383722 0.71400505
000010 6a b7 a3 be 1f 95 84 be 37 7d b5 be 01 06 0e 3f
       -0.3197587 -0.2589502 -0.35447094 0.5547791
000020 21 64 6c be 38 19 bc be b2 93 20 3f 67 9d 21 3f
       -0.23085071 -0.3673799 0.62725365 0.631308
000030 17 78 3e 3f ab 0a c4 be ab 4b f9 3e 47 79 a7 be
       0.7440199 -0.3828939 0.48690543 -0.32709715
000040 1f 6f 63 3f 56 d1 76 3f ee 08 27 3f e4 2a 59 be
       0.8884143 0.9641317 0.65248 -0.21207768
000050 2d 0e b1 be 66 16 df be 77 c7 18 3f 3e ea 28 3f
       -0.34581128 -0.43571776 0.5967936 0.65982425
000060 e5 91 84 3f eb d9 74 be de 47 38 be 0e 82 2b 3f
       1.0357023 -0.23911254 -0.17996165 0.6699532
000070 9c 25 d1 be 64 ba 26 3f 26 27 ae be bb a7 7d be
       -0.40849006 0.6512816 -0.34014243 -0.24771015
000080 a0 1a 54 be de a1 25 3f b7 b3 37 3f 1f 13 8f be
       -0.20713282 0.64700115 0.717586 -0.27944276
000090 62 48 92 be 5c 47 07 bf 10 bc 3d 3f 72 ea e8 be
       -0.2857085 -0.5284326 0.74115086 -0.45491368
0000a0 e2 9c 21 3f 80 f7 29 3f 23 bb a4 be 7e 50 76 3f
       0.6313001 0.6639328 -0.32174024 0.9621657
0000b0 e3 50 af 3e 20 ba aa be ee 39 bf be f3 f4 9b 3e
       0.342414 -0.33345127 -0.37348884 0.3046032
0000c0 54 99 58 3f 5e 07 5e 3f 2f 11 98 be 50 d8 65 be
       0.8460896 0.8672999 -0.2970061 -0.22445798
0000d0 10 67 a5 be 71 68 3c 3f ba 72 ac be 41 1b 1c 3f
       -0.32305193 0.73596865 -0.3368128 0.60979086
0000e0 91 b3 2c be 0d 05 93 be 5f 91 7e be 1d 1b 14 3f
       -0.16865374 -0.2871479 -0.24860142 0.5785387
0000f0 7f a2 9d be a8 b0 c5 be 41 2a 31 3f ff 5f 99 be
       -0.30788037 -0.3861134 0.692051 -0.29956052
000100 cb 5c f9 3d 4e fc 9b be 28 ea a2 be 5e 3c 3f 3f
       0.12175902 -0.3046593 -0.31819272 0.7470149
000110 61 f2 57 be 4a ba 90 be 2c 29 b6 be 46 70 22 3f
       -0.21088554 -0.28267127 -0.35578287 0.63452566
000120 e2 de 9c be 32 01 60 bd ce 23 28 3f 9d f4 3c 3f
       -0.30638796 -0.05468864 0.65679634 0.7381075
000130 37 f3 3f 3f 5b 14 3e be 0f bf d8 3e 1a 9c be be
       0.7498049 -0.18562452 0.42333266 -0.3722847
000140 68 91 5f 3f 8a 93 64 3f d4 2a 28 3f b3 37 95 be
       0.8733125 0.89287627 0.6569035 -0.29144058
000150 8c d2 b9 be 51 5a e9 be 9b 49 26 3f 6d 65 2e 3f
       -0.36293447 -0.45576718 0.64956063 0.68123513
000160 d9 71 73 3f 91 04 91 be 19 0d c8 be 90 02 29 3f
       0.9509559 -0.28323796 -0.39072493 0.66019535
000170 1e bc 62 bf 2b ae 34 3f c3 e5 62 be 31 e7 85 be
       -0.88568294 0.7057826 -0.2215796 -0.26152948
000180 0a 3c a9 be 43 5a 29 3f 07 34 43 3f 44 29 6a be
       -0.3305362 0.66153353 0.7625126 -0.22867304
000190 7d 4e bc be c3 7c a8 be 3c 56 48 3f 4c 82 d0 be
       -0.36778632 -0.32907686 0.78256583 -0.4072441
0001a0 dc b6 18 3f ae 4d 4d 3f 26 10 95 be f8 9a 6e 3f
       0.5965402 0.80196655 -0.29113883 0.93205214
0001b0 0f c2 17 3e 8a c0 9d be 3b 94 14 bf 5d f9 ed bd
       0.14820121 -0.30810958 -0.5803868 -0.11619828
0001c0 3d bf 60 3f a1 83 5d 3f 58 44 84 be 7f cd c6 be
       0.87791806 0.86528975 -0.25833392 -0.38828656
0001d0 81 1a 82 be 30 17 35 3f ae 22 8a be 09 f0 25 3f
       -0.25410846 0.70738506 -0.26979584 0.6481939
0001e0 bd 34 ca be 59 28 f8 be 9f 07 9e be eb 86 37 3f
       -0.3949336 -0.48468283 -0.3086519 0.71690243
0001f0 b7 a7 90 be de 63 35 be 2d 20 33 3f d3 44 8e be
       -0.28252956 -0.17713878 0.6997097 -0.27786884
000200 70 6c d2 3e 36 22 b9 be a6 70 32 be f0 b4 2d 3f
       0.41098356 -0.36158913 -0.17425784 0.67854214
000210 51 42 d3 be 8c f9 4a be ac a6 07 be e2 03 0d 3f
       -0.41261533 -0.19821757 -0.13247174 0.5508405
000220 c6 46 e5 be bb a0 b8 be c3 99 21 3f 46 2f 2f 3f
       -0.44780558 -0.36060128 0.63125247 0.6843151
000230 55 11 34 3f f5 8a 94 be 17 8d d7 be 08 df 76 be
       0.70338947 -0.29012266 -0.4209983 -0.24108517
000240 85 36 72 3f 80 62 6b 3f 3a a4 1f 3f 99 08 84 be
       0.9461444 0.91947174 0.62359965 -0.2578781
000250 f9 17 86 be af ae 18 be 28 e0 19 3f 73 a4 2f 3f
       -0.26190165 -0.14910387 0.6010766 0.68610305
000260 bc 02 89 3f 9d 4a a6 be 57 28 98 be 42 2d 29 3f
       1.070396 -0.324788 -0.29718277 0.6608468
000270 0b 2e 04 be 7d 6f 34 3f 2e d9 85 be 5d 66 b8 be
       -0.12908189 0.7048262 -0.26142257 -0.36015597
000280 d6 02 96 be f4 0b 1e 3f aa ec 29 3f 86 43 ab be
       -0.2929904 0.6173699 0.66376746 -0.33449954
000290 67 8d dd be cb 33 6b 3d cb f2 30 3f b3 ad 18 be
       -0.43271944 0.05742244 0.6912047 -0.14910011
0002a0 88 b3 f8 be 23 0c 46 3f 97 53 91 be ea 65 60 3f
       -0.4857447 0.7736227 -0.28384086 0.8765551
0002b0 bc 43 1c bf 61 7d a8 be f3 4a f5 3c f2 02 07 3f
       -0.61040854 -0.32908157 0.029942965 0.5273887
0002c0 4a 57 43 3f 1e 0e 56 3f f4 35 a5 be 5e 6b 87 be
       0.7630507 0.8361529 -0.32267725 -0.26449102
0002d0 ad 57 9a be 4e 5f 33 3f d6 c9 c2 be 06 40 17 3f
       -0.30145016 0.700673 -0.38044614 0.59082067
0002e0 19 99 af be ac 0b 83 be 4d 05 b0 be f3 8b 3a 3f
       -0.34296492 -0.25594842 -0.34379044 0.72869796
0002f0 d1 33 8c be c8 b0 85 be ac 13 2e 3f 56 19 60 be
       -0.27383283 -0.26111436 0.67998767 -0.21884665
000300 82 72 5c 3f 46 b5 92 be 5e 72 69 be 84 68 1d 3f
       0.86112225 -0.28653926 -0.22797534 0.61487603
000310 7b a2 9a be 66 d5 8c be 62 9c c5 be 86 04 1b 3f
       -0.30202088 -0.2750656 -0.38595873 0.6055378
000320 01 1f 1b be ed 16 ab be 21 40 3b 3f 9a 0c 22 3f
       -0.15148546 -0.33415928 0.7314473 0.6330048
000330 13 66 3e 3f da b8 85 be 76 55 96 be ba 6f af be
       0.743745 -0.26117593 -0.29362077 -0.34264928
000340 b4 cf 66 3f 34 06 64 3f 2d 57 2c 3f 89 56 8c be
       0.9016068 0.89071965 0.6732052 -0.2740977
000350 bf 0e a4 be 23 33 b7 be 8f a5 1e 3f 83 b4 39 3f
       -0.320425 -0.35781202 0.6197137 0.72541064
000360 f3 7e 72 3f 1a 0f 7f be 5b 32 88 be e7 71 37 3f
       0.9472496 -0.24908105 -0.26600918 0.71658176
000370 27 1e 04 3e 4a 63 37 3f 7a ff 8f be 9b cd 00 be
       0.12902127 0.7163588 -0.281246 -0.12578432
000380 a5 7a 6c be bd 3a 25 3f 61 f9 26 3f 07 5e b2 be
       -0.2309366 0.6454275 0.6522427 -0.34837362
000390 69 dd fc bd b8 a2 f9 be 9a c9 3b 3f 2f d7 29 be
       -0.12346918 -0.48756957 0.73354495 -0.16585992
0003a0 a4 a6 58 3f 96 7b 0d 3f ec ab bc be 54 73 6e 3f
       0.84629273 0.552667 -0.36849916 0.93144727
0003b0 85 be 65 be 7b 4b 05 be 62 28 07 bf 82 82 d9 3e
       -0.22435959 -0.13017075 -0.52795994 0.42482382
0003c0 00 bf 2c 3f b2 59 4c 3f 89 0f 93 be 71 80 4f be
       0.6747894 0.79824364 -0.2872279 -0.2026384
0003d0 7b 9f 81 be 86 d4 2d 3f 78 b7 b2 be 75 a0 31 3f
       -0.25316986 0.6790241 -0.349056 0.69385463
0003e0 c8 96 51 be 64 1c c9 bd e3 c8 32 be c6 53 15 3f
       -0.20467675 -0.09819868 -0.17459445 0.58330953
0003f0 f3 f9 87 be 01 f6 a4 be 43 bc 37 3f ab 4e c1 be
       -0.26557884 -0.32218936 0.7177164 -0.3775533

output.bias f4 [4]
000000 4b f3 84 40 d0 f1 8a 40 9c bb 9c 40 b9 67 85 40
       4.154699 4.342018 4.8979015 4.1689115
