dqn/exercise/checkpoint.pth (torch, 49062 bytes, 6 tensors)

input.weight f4 [120, 8]
00000000: f94b 213e 3655 8abe 61c2 c7be 4984 01bf
00000010: b388 e63d 1b0b 6e3e cf2b 033e 0968 063f
00000020: 9173 b7bd 5d35 e23c 604c 81be 715c 77be
00000030: 9229 e4be a6af 59bf 25fc e1be 2dd6 d83c
00000040: d0bd 153e 6fd1 debe d8e0 e7bf 18f5 7ebf
00000050: 67be 16be 6278 f33e 348a 853e 90ad 4a3e
00000060: 26fb 803e 5c2a 87be 5aaa 433f 67c5 bc3d
00000070: 52af f9be e8a1 ce3d c56d bd3d 3df7 da3e
00000080: 40af ddbe e5bb 56bf e795 ebbe 2141 91bf
00000090: 1537 1fba c5c1 f33d 8b4c be3e 8ad0 593e
000000a0: 3f45 ed3d 73b8 18be 274e 023e 7531 90be
000000b0: 8f08 08bf fd17 24be db60 c13e aa6f aa3e
000000c0: 308b 23be 7f35 88bf ffbf 683f bcdd 0e3f
000000d0: faad 7e3d 11e6 19bf 9872 e53e 98ed 093e
000000e0: 6426 a43e ee74 43bf c102 15bf 7224 74bf
000000f0: 7096 9e3e 0179 7b3e 794a 603d f845 803e
00000100: 80d3 a03e 12d0 273e 056c 5e3e 2f23 84bd
00000110: 2caf 06bf 351f c43f 9f77 48bf b2ec cebd
00000120: 752e dc3c d0b1 2a3f 4756 513f 9f4f f13e
00000130: b1b5 b5bb c54b fabe 7f6b c23d 4865 96bd
00000140: f174 d7be eb67 143f f572 8f3f 0889 cfbe
00000150: 7bc6 2e3f 6d48 f73c e4a6 dc3d 8d2d e33d
00000160: 3135 58be 30cf 2ec0 ac5d 35be a356 993f
00000170: 3a26 423f d6cc c73e dbc0 a7bf 9f2a 04be
00000180: 23c5 973e 1b1a 6a3c 27a1 01bf 1e11 7ebf
00000190: e21c 513f 82db 6b3e 344a 3ebd 851d 8fbe
000001a0: c95f a0be 5c1d 63be b547 cebf feff d5bf
000001b0: a3b3 d33c 43bc 533e 7633 243e 11a7 403c
000001c0: 864b 4cbe 637e 833f 0f91 853f 1787 23bf
000001d0: 466c 443c d177 983e f292 f23e 6e95 d5bd
000001e0: f7a5 d03e 20bb 11be c3dc 82be 4be6 7e3e
000001f0: ad77 983e 9f35 e83e 504c c6bc 95d3 913e
00000200: b567 5bbe cb46 95bf 8cd8 cabb 616b 2ebf
00000210: aac5 50bf 58d2 fabe b651 5f3e ddee 0cbe
00000220: e14b 8abe e904 7ebd 55d4 003e 91bc d53d
00000230: 1671 2c3f cf2a 1b3f 50b8 923e ca44 cc39
00000240: 59e5 40bf babd 3f3d f556 13bf a46a f8be
00000250: 62ef afbd 959d e1bd 8350 95be c95c f0be
00000260: cfba e7bd 0225 cd3e ee56 2e3f e082 74bf
00000270: b4c4 5c3f a699 2f3e 8b00 15bc a5fe aa3c
00000280: e3ab a4be 074e 62bf fc11 06bf cd0d 9ebe
00000290: b4d9 f13e 172c 93bc 2fdb eb3d 2a69 c83e
000002a0: fc89 abbe aef0 00bf 1dc8 df3d 4cd9 db3e
000002b0: 53e9 173f 86fd ed3e a455 c43b 9ae5 ef3e
000002c0: 3fc7 883e b38c debf ac18 b5be 2eb1 a6bf
000002d0: f0e7 043d a680 09be e09e 923e a9a7 2a3e
000002e0: 1b48 923e 63bb 7d3c b490 46bd f281 9fbe
000002f0: 4c08 f6bc 7560 aebc ea9c e63e b736 d03e
00000300: fa6a 4dbf 93a4 35be 6875 94be 35fd ecbe
00000310: ffef 76be 50fd c23b 819c cb3e cebf 403d
00000320: 007e febd a437 1fbe 18db 09bf a7bd 27bf
00000330: 4d94 d73e ddf6 773e e6a7 223d 19b7 0f3f
00000340: bf8b 583e c8ba 88be b502 da3d 882b 25bf
00000350: b8aa 96be de3a e0be 264f ca3d 47cb 573e
00000360: 5c88 f2be 506a 71bf a66c 32bf 3a23 88be
00000370: f734 e83e 0c3e 183e 9e68 533e 2897 383e
00000380: 7fc9 31bf ef4c 143f ae7f f1be 177b 24be
00000390: 7c66 cabe f7c8 77bd 0c70 353d f3d1 ce3e
000003a0: 5b0b 99bd 18f6 113f 1df4 603f 3fee 16bf
000003b0: 2313 df3e 2496 7fbd 7418 18bd d4cc ab3e
000003c0: 362e 95bd ee2d 513f 3999 2cbf 6ae6 8e3e
000003d0: bea6 453f bae3 d6bf e7e0 e73d af1f ecbe
000003e0: 59af a03d 390f 87bd 266a 46be 522f 7c3d
000003f0: e3c1 b13f 5c36 eb3d 2658 c3bd a08e cabb
0.15751638 -0.27018136 -0.39015487 -0.50592476 0.11256542 0.23246424 0.1280968 0.52502495
-0.089575894 0.027613336 -0.25253582 -0.24156357 -0.44562966 -0.85033643 -0.44137684 0.026469314
0.14623189 -0.4351916 -1.8115492 -0.99592733 -0.1472107 0.47552782 0.26082003 0.19792771
0.2519161 -0.26399505 0.7643181 0.09217339 -0.4876657 0.10089475 0.092494525 0.42766753
-0.43297768 -0.83880454 -0.46012804 -1.1348001 -0.00060735765 0.11902193 0.37167773 0.21270958
0.11585473 -0.14914112 0.12725125 -0.28162733 -0.5313806 -0.16024776 0.37769207 0.33288318
-0.15971065 -1.0641326 0.9091796 0.5580709 0.062177636 -0.6011668 0.4481399 0.13469541
0.3206054 -0.76350296 -0.5820733 -0.9536811 0.3097415 0.24557878 0.054758523 0.25053382
0.31411362 0.16387966 0.21720894 -0.06452023 -0.5261104 1.5322024 -0.7830753 -0.1010374
0.026877621 0.6667757 0.81772274 0.4713106 -0.005545341 -0.48885933 0.094931595 -0.073435366
-0.42081407 0.57971066 1.1206957 -0.40534234 0.6827161 0.030185902 0.10774019 0.110926725
-0.21114041 -2.7313957 -0.17711514 1.1979564 0.7583958 0.39023465 -1.310573 -0.12906884
0.2964259 0.014288451 -0.50636524 -0.9924487 0.81684697 0.23032954 -0.046457484 -0.2795221
-0.31323078 -0.22179168 -1.6115633 -1.6718748 0.025842493 0.20677285 0.16035256 0.011758582
-0.19950685 1.0272945 1.0434893 -0.63878006 0.011988705 0.29778913 0.47377735 -0.10428892
0.4075162 -0.14231539 -0.25559053 0.24892537 0.29778805 0.4535341 -0.02420631 0.28481737
-0.2142628 -1.1662229 -0.006190365 -0.681326 -0.8155161 -0.48988605 0.21808514 -0.13762994
-0.27011016 -0.0620164 0.12580998 0.10436357 0.67360055 0.60612196 0.28656244 0.00038961164
-0.75349957 0.046811797 -0.5755456 -0.4851886 -0.085905805 -0.110163845 -0.29162988 -0.4694579
-0.11314928 0.40067297 0.68101394 -0.955122 0.86237645 0.17148456 -0.009094368 0.020873377
-0.3216239 -0.8840031 -0.5237119 -0.30869904 0.47236407 -0.01796536 0.11516415 0.39142734
-0.3350371 -0.5036725 0.109268405 0.42939222 0.593404 0.46482486 0.0059916545 0.4685486
0.26714513 -1.7386688 -0.35370386 -1.3022821 0.032447755 -0.13427982 0.28636837 0.1666552
0.28570637 0.015486571 -0.048477843 -0.31153828 -0.030033253 -0.021286229 0.4504159 0.40666744
-0.8024136 -0.17738561 -0.28995824 -0.46286932 -0.24114989 0.0059506074 0.3976784 0.04705792
-0.12426376 -0.15548569 -0.53849936 -0.6552376 0.42105332 0.24215265 0.0397109 0.5613876
0.21147059 -0.26705003 0.106450476 -0.6451955 -0.29427123 -0.43794912 0.098783776 0.21073638
-0.4736966 -0.94302845 -0.69697034 -0.26589376 0.4535291 0.14867419 0.20645377 0.18026412
-0.69448084 0.5792989 -0.47167724 -0.1606258 -0.39531314 -0.06049439 0.04429631 0.40394554
-0.07472869 0.57016134 0.8787249 -0.58957285 0.43569288 -0.062399045 -0.037132695 0.3355471
-0.07284205 0.8171071 -0.674213 0.27910167 0.77207553 -1.6788247 0.113221936 -0.46117923
0.07845945 -0.065947 -0.1937643 0.061568566 1.3887295 0.114849776 -0.09538297 -0.006181553

input.bias f4 [120]
00000000: 55b7 a3be cf63 b33d 0f14 ac3e 7ba9 9ebe
00000010: 6c64 cabe 612d dabd 1985 0f3f 3a2f 74be
00000020: 35c7 d93e 4e07 543f 6f3e 203f 26b5 ba3e
00000030: 5015 363f 61dd 613e 9299 59be 2882 e93e
00000040: 0205 1d3e 8a03 e93e 144b 26be 1b6a cf3e
00000050: 9f2a 07be 9b27 43be fbc7 843d a78c 7bbe
00000060: db90 8cbd 738e 71be 1552 ffbe 9742 99be
00000070: 03a6 0a3a 305a 1f3f 365e d93d ed61 f53e
00000080: 983d 36be 4d12 0ebe 5af8 5e3d d898 99be
00000090: e514 f03e ac99 90be e11e a53e 9ad7 9c3e
000000a0: 02e0 22be f1d2 9abe 42b9 fc3e a3e5 d5bd
000000b0: 55c5 1d3e a734 b73e 5f83 19bf cda3 39be
000000c0: 7379 1c3f d7a1 863e ad7f d33d bf07 22be
000000d0: 5b65 b63e 1836 04bf fedf 95be b20b db3e
000000e0: 028f b63e 5b2d 393e 04ec 22be f470 43be
000000f0: 3b86 ea3c 9564 b2be 5c8f 2bbe f579 47be
00000100: 00cf 28be eb88 8cbe 5a2b 0bbf 1ce3 813c
00000110: 7d9c abbe e0f3 623e e1bf 153f 90e9 9abd
00000120: 9a5f 00bf 6346 a2bd 7a95 51bc b444 dc3e
00000130: 883e 85be ea4b 643e 4368 7ebe 6183 8d3e
00000140: 42cc 4fbd 763b db3e a938 c63e bbce 9e3d
00000150: eaa2 2b3f 93c3 863c 11bb 1c3f 2a94 dfbd
00000160: c48c 91bd 1307 ae3d 1167 31be a17e 663d
00000170: ad11 c93d 1974 243f 194a debe c9dd 4bbd
00000180: 3b0d 643e da65 bbbb 1590 783e a42f 96bd
00000190: 1488 25bf 03f5 cc3e d7b4 de3e a1f1 893e
000001a0: 17dd b9bd e2c6 6bbb d704 ba3e ef74 44bf
000001b0: 43fb ebbd 1762 fe3e 088d 9f3e 4920 93bd
000001c0: 4995 043e d4a5 79be 3f7f 133f 36dd 643e
000001d0: 24d5 02bf c52f 8bbe a87a 103f 771c 24bd
-0.3197581 0.08759271 0.33609053 -0.30988678 -0.3952974 -0.106531866 0.56062466 -0.2384614
0.42534795 0.82823646 0.62595266 0.3646633 0.7112627 0.22057106 -0.21249989 0.45607114
0.15333942 0.45510513 -0.16239578 0.4051064 -0.13199852 -0.19058077 0.06483456 -0.24565373
-0.068635665 -0.23589496 -0.4986731 -0.29933617 0.000528902 0.6224699 0.106136724 0.47926274
-0.17796934 -0.13874169 0.054436065 -0.29999423 0.4689094 -0.28242242 0.3225012 0.3063324
-0.15905765 -0.3023906 0.4936009 -0.1044419 0.15407307 0.35782358 -0.5996608 -0.18128891
0.61122817 0.2629535 0.103270866 -0.15823267 0.35624203 -0.5164504 -0.29272455 0.4278236
0.3565598 0.18083708 -0.15910345 -0.19086057 0.02862846 -0.34842363 -0.16753906 -0.19480117
-0.16485214 -0.2744821 -0.54363024 0.015855365 -0.3351783 0.22163343 0.5849591 -0.0756408
-0.50145876 -0.079235815 -0.012791986 0.43021166 -0.2602427 0.22294584 -0.2484446 0.27639297
-0.050731905 0.42818803 0.38715103 0.077542745 0.6704546 0.016450679 0.6122294 -0.10916932
-0.07106927 0.08497443 -0.17324473 0.056273106 0.098178245 0.6423965 -0.43415907 -0.049772058
0.22270672 -0.0057189288 0.24273713 -0.073333055 -0.64660764 0.4003068 0.43497345 0.2694216
-0.09075373 -0.0035976698 0.36331818 -0.76740927 -0.11522534 0.49684212 0.31162286 -0.07183892
0.12947573 -0.24379665 0.5761604 0.2235001 -0.51106477 -0.27184883 0.5643716 -0.04006621

hidden_layers.0.weight f4 [84, 120]
00000000: 0ae3 cc3e f7c6 113e 936c bcbf c08d c23e
00000010: 843f a03d 6554 b43e 031b d13e bbed 16be
00000020: b9e5 6dc0 3e43 123f 5e8b eb3e 9854 f6bf
00000030: ccaa 2dbf be93 59bf bd63 973e 25fd 62bf
00000040: 010f 823d 3ffe 76bf 2f8b e2be efae de3e
00000050: f60e b33e 447a 4e3f a7e6 1c3e c887 b83e
00000060: 283c bb3e 717f 733e e985 e13e a109 01be
00000070: 6e54 433f f2f2 073f 780a c23a 3e96 0b3f
00000080: 53f7 253d f335 3cc0 14bb 003e a2ac 00be
00000090: d33d f7bd 059e a13e 8ba6 07be 230c fd3e
000000a0: e805 febe ffdf 12bf b1ff 233f c301 82bd
000000b0: 3c00 63bc 55c0 a6bf d421 973f 9eeb ea3e
000000c0: f074 ad3e a62c 2cbf e9bc 0a3f 4ed6 003e
000000d0: a124 0a3f 1607 c83e 9186 973d 6f22 25bf
000000e0: cf49 f2bd 58be 283e 8321 1b3f 8505 ea3e
000000f0: cad0 23bf a5fe 9ebd 00ce 2cbf 14bb 90bd
00000100: e207 233f 50d4 073e 73f9 9f3d dd2d 1f3d
00000110: 1f59 37c0 a23d 71bd 9e55 95bf cf64 1c3f
00000120: be48 d03d c50b 56c0 445c 8fbf 207d 51bf
00000130: 596f 033f 69cb 013f 155a 5b3e 1c3f 0c3f
00000140: 982a 583f b606 8abe 94e7 2cbd 6ad7 463f
00000150: 5b4a 3c3f 4f10 e4bd df72 fdbf a92b d23d
00000160: bc1e 37c0 e8e0 08be 4d96 e03e 17b5 c5bf
00000170: 5bb8 1f3d 68c3 f23e 8865 0ec0 6cca 08be
00000180: a67b b5be d614 903e 9de3 10bf 7636 7f3e
00000190: a5b2 413e 5b0d bc3e 9259 b3be 14d2 0bbf
000001a0: 758e cfbe 23be d0be 5642 363f 5ea0 9cbd
000001b0: 9e6e 2e3f a13b 4ac0 0ba1 35be 3705 6ebe
000001c0: 88b8 76be bcc5 f73d b729 093f 4554 48bf
000001d0: 9935 193f daaf 803e b332 223e b770 613e
000001e0: 215b 60bf ca7f cbbd e42f 9f3c 1f78 8bbf
000001f0: 5ec0 4ebf 56f8 f5bf 50a8 33bf a9d2 72bf
00000200: 1004 1d3f 98a7 ab3e c143 063f ea3d 0a3f
00000210: 43a6 de3e b088 c53b 5d48 123f 92f3 d7be
00000220: d6dd b1bf acd8 cd3e c978 46be f1da 143f
00000230: 4e7c 12bf 8e2e d23e d630 a0bf 3d1d 24bf
00000240: f7db 9dbd a889 fdbe 0b21 95bf 2811 6bbe
00000250: 25bb 843e 370b cb3e a1b1 443f e6a1 ce3e
00000260: 223c 37bf 94a2 e8bd 714f 973e 1782 dabd
00000270: af7a 21be 276c 52bf 74b7 6ebf 00cb 8fbe
00000280: 1190 fe3d 7581 d1bd 3a4f a1be 34dc cb3e
00000290: e3f1 18bf 788b 83bf 7695 1cbf 69b9 0f3f
000002a0: 840d 74bd 26a1 113f 081f 8abf be30 273f
000002b0: 4255 03c0 e2fd 04bf 29d4 0ac0 17b3 8e3e
000002c0: dcb2 d93e 2b1b be3e ae90 033e ea94 0a3f
000002d0: b69f 10bf dab4 d1bf ecb4 d73f 43f7 0dbf
000002e0: 5673 0c3f 2451 9abf ce00 1640 5ecb 9ebe
000002f0: ab8d 1ebf ccb2 8ebf f5c0 2cbf 94af 0bbf
00000300: 2f35 f23f 9eef 2fbe 1e82 ed3e dd22 abbe
00000310: 4584 e9be 07af 10bf 8281 b4bf e899 17bf
00000320: b77a 34be bb4a 2d3f 254b a43e 0a67 9cbf
00000330: 2a2c 06c0 64a5 2ebf 0f9c 093f 1380 5c3b
00000340: b987 2bc0 9aed 29bf 4385 63bf 19c8 3bbe
00000350: dff8 4bbf 6e5d 0b3f 1f35 1ebf 6cd1 873e
00000360: 9e5c af3e f698 063f 8f81 14bf 20d4 8ebf
00000370: c59c 6cbf a13b 753e 33b9 0a3f 4676 20bf
00000380: 64b9 d83e e78a 3d3f ad01 1fbf 7c2b 87bf
00000390: 23b7 13bf 051b d13e 5343 20be 0957 6abf
000003a0: 6dd2 f93d 510f 81bf c546 62bf b872 babf
000003b0: aecf 5cbe d78c 8dbf 2ca4 9b3e af97 22bf
000003c0: 19d6 d83c 2790 f63e fd9c 303d 76cd 603c
000003d0: 5b82 013d 8769 3d3e ff8d 28bf 6d84 863e
000003e0: 8f96 a7bd 1928 febe 3580 803d 6ce6 23bf
000003f0: 5dbe 4b3e cce0 d43d 4e47 39be 2955 45be
0.40016967 0.14236055 -1.4720634 0.37998772 0.07824615 0.35220638 0.4084092 -0.14739124
-3.7171462 0.57133853 0.46004766 -1.9244566 -0.6783874 -0.8499106 0.29568282 -0.8866752
0.06350518 -0.964817 -0.44246814 0.4349284 0.34972352 0.8065531 0.15322362 0.36041093
0.36569333 0.23779084 0.44047478 -0.1260133 0.76300704 0.5310508 0.0014804145 0.54526126
0.04051907 -2.9407928 0.12571365 -0.12565854 -0.12072339 0.31565872 -0.13247125 0.49423322
-0.4961388 -0.5737304 0.6406203 -0.06347992 -0.013855036 -1.3027445 1.1807199 0.45882887
0.3387828 -0.6725563 0.54194504 0.12581751 0.5396214 0.39067906 0.073987134 -0.64505666
-0.11830484 0.1647886 0.6059801 0.45707336 -0.6399046 -0.07763413 -0.6750183 -0.07066932
0.63683903 0.13264585 0.078112505 0.038862098 -2.8648145 -0.05889667 -1.1666753 0.6109132
0.101701245 -3.3444684 -1.1200032 -0.8183155 0.5134178 0.50701004 0.21421082 0.547838
0.8443999 -0.26958245 -0.042213038 0.77672446 0.7355096 -0.11135923 -1.9800681 0.10262234
-2.8612509 -0.13367045 0.4386467 -1.5445889 0.038994174 0.47414708 -2.224947 -0.13358468
-0.354459 0.28140897 -0.5659731 0.24923119 0.18915804 0.3672894 -0.35029274 -0.5461743
-0.40538374 -0.40770063 0.7119497 -0.07647775 0.6813754 -3.1598895 -0.17737214 -0.23244177
-0.2409383 0.12098262 0.53579277 -0.78253585 0.5984741 0.25134164 0.15839653 0.22015654
-0.8763905 -0.09936483 0.019432016 -1.0896033 -0.8076228 -1.9216411 -0.701787 -0.9485269
0.61334324 0.335263 0.52447134 0.54000723 0.43486223 0.0060282573 0.5714167 -0.42178017
-1.3895824 0.4020437 -0.19382013 0.5814658 -0.57220924 0.41051143 -1.2514904 -0.64107114
-0.077079706 -0.49519086 -1.1650709 -0.22955763 0.2592403 0.39656994 0.7683354 0.40357894
-0.7157613 -0.11359134 0.29552796 -0.10669344 -0.15769456 -0.8219628 -0.9324868 -0.28084564
0.12429822 -0.1022977 -0.31505758 0.3981644 -0.5974409 -1.0276937 -0.6116556 0.5614229
-0.059583202 0.5688652 -1.079072 0.6530875 -2.0520787 -0.51949894 -2.1691992 0.2787101
0.4251927 0.37130103 0.1284816 0.54133475 -0.564937 -1.6383317 1.6852088 -0.55455416
0.5486349 -1.2056012 2.343799 -0.31014532 -0.6193492 -1.1148314 -0.6748193 -0.54564786
1.892248 -0.1718125 0.46388334 -0.33425036 -0.45608726 -0.5651707 -1.4102023 -0.5921922
-0.17624937 0.67692155 0.3208858 -1.2218945 -2.0964456 -0.68221116 0.5375375 0.0033645674
-2.6801589 -0.66378176 -0.88875216 -0.1833805 -0.7967662 0.5443944 -0.61799806 0.26526964
0.3425035 0.5257715 -0.5801019 -1.1158485 -0.9242671 0.23948528 0.5418884 -0.6268047
0.42328942 0.74040073 -0.6211193 -1.0560145 -0.5770132 0.40840927 -0.15650682 -0.91539055
0.12198339 -1.0082799 -0.88389236 -1.4566259 -0.21563599 -1.1058606 0.3039869 -0.635127
0.026469277 0.48156855 0.043118466 0.013720861 0.031618457 0.18497287 -0.6584167 0.26272908
-0.08183014 -0.49639967 0.062744536 -0.6402347 0.19896837 0.10394439 -0.18093607 -0.19270767

hidden_layers.0.bias f4 [84]
00000000: 985e c93e 0b62 aa3e 309a 0f3e b95f 4b3d
00000010: f487 0abd 5489 0a3e 7427 49bd f4e3 0f3d
00000020: d4b7 b03d abe9 063e 2ee8 26bd 5202 1bbd
00000030: c4f0 5fbe 4417 ee3c a5cd 23bd 8231 403d
00000040: 85f9 0fbd 7dae 12be bc5f c23e 1651 bebd
00000050: 4472 82bd 0697 643d b7fe d13c 0cfe d63d
00000060: ee52 f9bc 6223 f93c ae34 463d 2b5e 253e
00000070: a82c 1cbd 0ed6 da3d 7046 9c3d 058b 033e
00000080: a82d aebc a439 873e 26c4 81bd de0c 9cbc
00000090: 70f2 093f 0aad ea3d 2eae 54bc 1e31 a2bc
000000a0: a8d8 76bc a50a 6a3e 54df 283d b983 273d
000000b0: 878d 9b3d dfca d53d a004 0d3e 2145 173f
000000c0: fe18 e93e 21a3 c23d be9b 5b3e c1d1 b4be
000000d0: 141c 2e3e 431d dfbd f843 f73d 1806 f63e
000000e0: 2762 dd3d 52d6 8abd 92ef ab3d 191b 553d
000000f0: 405b c63d 221a 213e c121 133f 77a8 a0bd
00000100: e6ed 1a3e dead fb3c 0ba1 5abd 1d2e a83d
00000110: fd18 00bd 2583 c93d 85f2 25bd 5111 4e3d
00000120: 6a97 f03e 2273 6abc a037 3fbd 972e ea3d
00000130: f9e3 063e da10 69bd 91f2 dd3d 7ea6 bc3d
00000140: 1567 b83c 37e5 e13d 86e8 873d 92fa 953d
0.39329982 0.33277926 0.14023662 0.049651835 -0.03382106 0.13528949 -0.04910989 0.035129502
0.086288124 0.13175075 -0.040748768 -0.03784401 -0.21869189 0.029063828 -0.03999104 0.046922214
-0.03515007 -0.14324374 0.37963665 -0.0929281 -0.06369451 0.05580809 0.025634153 0.10497674
-0.030435052 0.03041238 0.048390083 0.16149203 -0.038128525 0.10685359 0.076306224 0.12846
-0.021262005 0.26411164 -0.063362405 -0.019049104 0.53885555 0.11458786 -0.012980981 -0.019798812
-0.015066303 0.22855623 0.041228607 0.040897105 0.075953536 0.10439085 0.13771296 0.5908986
0.4552688 0.095037706 0.2144613 -0.3531628 0.17002898 -0.10894253 0.12073511 0.48051524
0.10809737 -0.067791596 0.08395304 0.052027795 0.09685373 0.15732625 0.5747338 -0.07844632
0.15129814 0.030722555 -0.05337624 0.082119204 -0.03127383 0.09839467 -0.040514488 0.050309483
0.4699052 -0.014309676 -0.046683908 0.114346676 0.13172902 -0.056900837 0.108372815 0.09211443
0.02251009 0.110300474 0.06636147 0.07323183

output.weight f4 [4, 84]
00000000: e220 debf c5d8 a43f cec7 00bf 5893 3cbe
00000010: 0620 5fbf 6227 0dbf 23b8 83be 72c1 0ebd
00000020: 6e08 f1be 86db 9bbe 2d79 9a3f 4606 a6be
00000030: 528f 58bf 0369 9b3d 077c 223d 68ea 08be
00000040: 1f1e 4d3d 6cc8 50bf 3e85 f3bf cb47 14bf
00000050: 7ee0 38bc bb07 88be cf9b cebd 8848 88be
00000060: 0b93 ca3b 2038 44be 9036 ec3f b860 1ebf
00000070: 9df6 8fbe 2995 ccbe cd28 cc3e c703 f1be
00000080: f078 843d 7465 a4bf 1be9 4fbd 8e60 eebe
00000090: 0266 903f 7ed7 26bf 7b2c 0fbf 46f1 59bf
000000a0: db78 e6be 752d afbe a69a 3bbc 4a11 e33e
000000b0: 59ac b5be 5d81 9a3e 02b9 ebbe 7c27 633f
000000c0: 5b04 9ebf 5f8e a7be ba5d 2e3f 71c9 f83e
000000d0: bfc4 00bf 06c6 8ebe 4545 0bbf fb34 0440
000000e0: fd0a c2be 6733 b2be 641b 013f e2d1 e1be
000000f0: a5d4 02bf 5d61 c63f ad15 9c3f 8087 dbbd
00000100: e8fc a5be 0bed 6a3f 6245 7cba b63f 103e
00000110: b9f5 7abe fe23 13bf 9fb9 833e c4d0 aebe
00000120: 0d52 933f bf0e 39bf 94d9 be3d 11b9 c3be
00000130: 3135 f93e a068 d4bb b90a adbe 24fe 10bf
00000140: a7a6 ac3d 31dc 41be 505d 03bf c3b6 b3be
00000150: 854b 96bf 06b5 d03f e27a edbe 5c4e babe
00000160: af00 e9be 0691 e3be 0e3c 04bf 0318 17bf
00000170: 5a16 edbe 9a71 09bf 4c94 b73f 7a98 0bbf
00000180: eb74 01bf 2c73 173d f0b8 563d 7f8b 1dbf
00000190: c902 4a3d e932 283d 9dad a4bf 53e4 76bf
000001a0: 3432 b1bd e966 85be 5e33 1b3d 78f8 7bbe
000001b0: d562 8abd 61c9 cbbe f244 be3f 3b4d dabe
000001c0: afd0 9cbe fe7e 97be 4dba dcbe 7ba3 16bf
000001d0: 4043 8a3d 26cf db3e 29e1 6d3d 83b1 07bf
000001e0: 755a a03f 6fc9 02bf 0714 c9be 4fd4 a8be
000001f0: bc96 94be e549 14be 713a cd3c ea8b 3a3f
00000200: b365 b9be 5681 793e 046c e8be 25c5 833f
00000210: 51db 8bbf ccb5 88be 6ba4 6f3f e9d6 413f
00000220: 6c48 aabf 8e8e eabe 9075 d4be b43a 0540
00000230: 8813 b3be 56d6 e1be 805c 013f 0135 03bf
00000240: 4a82 bebe 0c56 f53f 3381 9e3f 32ac e3be
00000250: 57eb 9dbe 8904 613f cda4 a23b 5442 1ebe
00000260: 4292 10bf 350a 79be 6f3b df3e 102d b3bf
00000270: 235e 7d3f e4c8 4ebf ff92 b5bd 948e b7be
00000280: 7902 413d 38cd cdba 8f9b b2be c7cb 30bf
00000290: d810 7a3d 9633 12bf c364 02bf de22 efbe
000002a0: 87dd 7dbf 5bbf b63f 63cb 8cbe 0446 c1be
000002b0: a6fa edbe 1580 24bf c3aa 18be f410 86bf
000002c0: e218 e0be 2e2c 08bf 5bf1 ca3f e7cc 01be
000002d0: 6384 24bf 4a73 64bd 2698 493c 9234 0abf
000002e0: bfe7 953c 6d57 88be d61f 8abf 0ebd bdbe
000002f0: 6fba febc f9df e6be 4da2 8a3c 80f8 d4be
00000300: bfd0 873d a10a 87be 1640 a93f 6ea0 f4be
00000310: 6595 b9be 9879 68be 1c74 6d3f b3d4 86be
00000320: 9848 103d 7f5e 223f 397e b43e 43f4 8abe
00000330: 7f04 a73f de15 6cbf 104d 7bbe 1f20 26bf
00000340: d143 e9be 07a4 91be ef95 d4bd 1e78 a2bf
00000350: 8b32 06bf 8ef0 be3e 2102 c8be cc5c 9e3f
00000360: c229 ddbf 02c9 4cbe 898b 7b3f 33a3 743f
00000370: 0a88 91bd f664 f8be 007b 263e 0e54 ef3f
00000380: 506a 0abf 0591 33bf 3ef8 55be 3227 06be
00000390: 8e4d 99be 73a3 c83f 45cc 843f f552 fcbe
000003a0: a698 a8be 4937 a83f 4369 88bd 925f ea3e
000003b0: 9fdf bebe 5280 88be 3d90 8abf c8f3 39bf
000003c0: b3f1 933f cbeb 70bf 5870 86bd c592 04bf
000003d0: e85d b0be 9797 d23d 0d72 39be e92e 91bf
000003e0: f840 333d e7a7 a2be 189e abbe 6a83 0abf
000003f0: 9bfa 9fbf 554a f03f f601 4bbe abe3 b7be
-1.7353785 1.2878653 -0.5030488 -0.18415582 -0.8715824 -0.5513822 -0.25726423 -0.034852453
-0.47076744 -0.3044092 1.206823 -0.3242666 -0.8459369 0.07588389 0.039669063 -0.13370669
0.050077554 -0.8155582 -1.9025037 -0.5792205 -0.011283992 -0.26568398 -0.10088312 -0.26617837
0.0061820797 -0.19162035 1.8454151 -0.6186633 -0.28117839 -0.3995755 0.3987488 -0.47073194
0.064683795 -1.2843461 -0.050759416 -0.4655804 1.128113 -0.65172565 -0.55927247 -0.8513378
-0.4501408 -0.34214368 -0.011450445 0.44349128 -0.35483053 0.3017682 -0.46039587 0.88732123
-1.2345079 -0.32725808 0.68111765 0.48591188 -0.5030021 -0.27885455 -0.5440257 2.0657337
-0.37899008 -0.34804842 0.5043242 -0.4410544 -0.5110572 1.5498463 1.2194115 -0.10719204
-0.32419515 0.9176795 -0.0009623376 0.14086804 -0.24507798 -0.57476795 0.25727555 -0.3414365
1.1509415 -0.72288126 0.093188435 -0.38227132 0.48673394 -0.006482199 -0.33797243 -0.5663779
0.08430224 -0.18931653 -0.5131426 -0.35100374 -1.1741797 1.6305244 -0.46382815 -0.36387908
-0.45508334 -0.44446582 -0.51654136 -0.59021014 -0.46306115 -0.5368897 1.4342132 -0.54529536
-0.5056903 0.03697507 0.052422464 -0.6154098 0.049319062 0.041064177 -1.2865483 -0.96442145
-0.086521536 -0.26055077 0.037890784 -0.24606502 -0.06757132 -0.39802077 1.486479 -0.42637047
-0.30627963 -0.29589075 -0.43110886 -0.588432 0.06751108 0.4293148 0.058076058 -0.53005236
1.2527605 -0.51088613 -0.39273092 -0.3297448 -0.2902125 -0.14481314 0.025052281 0.7286974
-0.36210403 0.24365744 -0.4539491 1.0294539 -1.0926305 -0.267012 0.93610257 0.7571855
-1.3303351 -0.45811886 -0.41495943 2.081708 -0.3497584 -0.44108838 0.5053177 -0.5125275
-0.37208778 1.9166884 1.2383178 -0.44467312 -0.30843613 0.87897545 0.0049634934 -0.1545499
-0.5647317 -0.243203 0.43600032 -1.3998127 0.98971766 -0.80775285 -0.08865928 -0.35850966
0.0471215 -0.0015701419 -0.34884307 -0.6906094 0.06105122 -0.57109964 -0.50935 -0.4670629
-0.9916615 1.4277147 -0.27498922 -0.3774873 -0.46480292 -0.6425794 -0.1490889 -1.0473924
-0.43768984 -0.5319241 1.5854906 -0.1267582 -0.64264506 -0.05577401 0.012304341 -0.53986466
0.018298982 -0.266292 -1.0790966 -0.370583 -0.031094758 -0.45092753 0.016923094 -0.4159584
0.06631612 -0.26375297 1.3222682 -0.47778648 -0.3624679 -0.22702634 0.92755294 -0.26334152
0.03522548 0.6342544 0.3525255 -0.27139482 1.3048247 -0.92220867 -0.24541116 -0.6489276
-0.45559552 -0.28445455 -0.1038016 -1.2692907 -0.5242087 0.37292904 -0.39064124 1.2372069
-1.7278368 -0.19998553 0.9825979 0.9556152 -0.071060255 -0.48514527 0.16257858 1.8697526
-0.5406847 -0.7014316 -0.20895478 -0.1310089 -0.29941982 1.5674881 1.0374838 -0.4928204
-0.32928962 1.3141872 -0.06660702 0.4577604 -0.37279984 -0.266604 -1.0825268 -0.72637606
1.1558136 -0.9410979 -0.065643966 -0.5178645 -0.34446645 0.1028282 -0.18109913 -1.1342441
0.04376313 -0.31768724 -0.33519053 -0.5410677 -1.2498354 1.8772684 -0.19824967 -0.35915884

output.bias f4 [4]
00000000: 132a bcbd cf76 d4bc 3312 dc3d 3574 08be
-0.091877125 -0.025935559 0.10745659 -0.1332558
